utils/rnn_gen_model.pth (torch, 189080 bytes, 6 tensors)

i2h.weight f4 [128, 189]
-0.049361587 -0.031337492 0.07069231 0.2161339 0.012894523 0.13111854 0.03879344 0.06885358
0.17212428 0.06604608 -0.19173351 0.0031364623 -0.016300963 0.1969702 -0.02337247 -0.1421482
-0.03879734 0.1433742 -0.1285033 -0.20854156 -0.18004304 0.17319675 0.0910839 0.04703012
0.02761186 -0.03463697 -0.06037692 0.073177576 -0.0062205973 0.037383217 -0.057074055 0.007233931
0.03505591 -0.06710534 -0.02059972 0.024763932 -0.0032974232 0.013283983 -0.041689828 -0.00437645
0.06843256 -0.043954894 -0.07070852 -0.07037259 0.062385086 0.0036136531 0.057629574 -0.07190278
0.039238114 0.03924767 -0.04648821 -0.03793885 0.037750676 -0.038201597 -0.13269813 0.057372414
-0.028183073 -0.0040960666 -0.04352905 -0.1835249 -0.036183536 0.051740814 -0.0013592186 -0.083133206
-0.07577662 -0.027727742 0.018733688 -0.064393505 0.076294415 0.017083539 0.037398346 -0.06407611
-0.040517695 -0.023127688 0.060034763 -0.066611215 0.07231642 0.011832519 -0.07639004 -0.070465766
-0.030588066 0.04074225 0.021927578 -0.0462771 0.028646955 0.026531603 -0.01661894 -0.008363798
-0.017637257 0.07392451 -0.04536547 -0.08549786 0.0025800467 -0.0089042615 0.064361446 -0.06316104
0.0476522 0.052742157 -0.073692985 -0.05893689 0.01624733 0.0020028064 -0.043430265 -0.013902883
0.009740714 0.010517679 0.006891766 -0.022017853 -0.020325895 0.006429628 -0.03028209 -0.091006815
0.019219756 -0.06265597 0.034111924 -0.036359474 -0.012426818 -0.022598535 -0.00453189 -0.07491529
0.05449345 -0.013438867 -0.07383987 0.05142717 -0.007640933 -0.023154214 0.038606882 0.03770304
-0.0028833959 0.05940715 0.05080574 0.07334234 -0.07281185 -0.092098914 0.036508974 -0.018513547
0.03500876 0.062556446 0.013340745 -0.01896908 -0.03693873 -0.047252335 0.05184931 0.035307713
0.0010239952 -0.0898772 -0.0065944092 0.0006579674 -0.061432224 0.047779612 0.066648655 0.013437162
0.02708818 -0.060879055 0.026144112 0.03370062 -0.047837608 -0.0416704 -0.03228016 -0.040302586
-0.029956361 0.035986815 0.044664614 0.06386945 -0.061858527 -0.010807128 0.01821569 0.0041581537
-0.06860148 -0.030108191 0.040642567 -0.060259365 -0.0051535517 -0.022808598 -0.020201828 -0.059249308
0.011470888 -0.053817485 0.005840037 0.0025125158 -0.07861417 -0.0012642203 0.04692113 0.045509696
-0.08499951 -0.06715404 -0.0021429819 -0.010875485 0.03923392 0.10393563 0.04126605 -0.15654838
0.118312694 -0.039595842 0.062306028 -0.16374 0.02352949 0.14219671 0.11398668 0.18146059
0.038263835 0.041131776 -0.023662124 -0.1316005 -0.012986288 -0.088902414 -0.09553473 0.023821134
0.005927773 0.27662328 -0.14469524 -0.11746505 0.04861648 -0.0027724213 0.009119307 0.03185714
0.042027343 -0.005547582 -0.018586405 -0.04064609 0.03098146 -0.06957416 0.06970207 -0.07122565
0.030959496 -0.026421908 0.015571195 0.005080655 0.006861529 -0.012311846 -0.054800943 -0.033035044
-0.052014902 -0.043186147 0.036039606 -0.043407273 -0.024037207 0.005705372 -0.024723047 0.02886834
0.063685104 -0.0028398526 0.06288462 -0.07849116 -0.04043867 7.693088e-05 0.04967916 0.004321531
-0.04324432 -0.02496781 0.0503626 0.04546817 -0.05130275 0.024323158 -0.03198542 -0.03581574
00000000: 602f 4abd be5b 00bd 21c7 903d 3552 5d3e
00000010: 8d43 533c f043 063e dfe5 1e3d 1b03 8d3d
00000020: 5941 303e 2b43 873d ca55 44be 1b8d 4d3b
00000030: 9989 85bc 8eb2 493e 9f77 bfbc 4c8f 11be
00000040: f6e9 1ebd b0d0 123e 5e96 03be eb8b 55be
00000050: 345d 38be 7d5a 313e 328a ba3d a8a2 403d
00000060: 4432 e23c 7fdf 0dbd ca4d 77bd 20de 953d
00000070: 27d6 cbbb 251f 193d 7cc6 69bd 9d0a ed3b
00000080: c996 0f3d 866e 89bd bec0 a8bc bbdd ca3c
00000090: 9519 58bb 10a5 593c f4c2 2abd 5368 8fbb
000000a0: 5f26 8c3d 0c0a 34bd a1cf 90bd 811f 90bd
000000b0: 8187 7f3d 0ad3 6c3b fd0c 6c3d c441 93bd
000000c0: 25b8 203d 2ac2 203d 6c6a 3ebd c465 1bbd
000000d0: 74a0 1a3d 4779 1cbd 05e2 07be 56ff 6a3d
000000e0: 30e0 e6bc 4c38 86bb 844b 32bd f4ed 3bbe
000000f0: 3035 14bd 2dee 533d cf27 b2ba be41 aabd
00000100: c630 9bbd 4a25 e3bc 6477 993c bee0 83bd
00000110: 3f40 9c3d c7f2 8b3c 022f 193d 563a 83bd
00000120: e2f5 25bd 4776 bdbc 03e7 753d 766b 88bd
00000130: a21a 943d 2fdd 413c 6272 9cbd 5b50 90bd
00000140: d393 fabc 58e1 263d 77a1 b33c 0e8d 3dbd
00000150: 05ad ea3c ce58 d93c 7124 88bc 5008 09bc
00000160: 027c 90bc bc65 973d 25d1 39bd 8119 afbd
00000170: 0016 293b 2ee3 11bc efcf 833d 935a 81bd
00000180: f42e 433d 2908 583d 59ec 96bd cf67 71bd
00000190: 1f19 853c 8441 033b efe3 31bd ebc8 63bc
000001a0: 8497 1f3c 5852 2c3c 53d4 e13b c95e b4bc
000001b0: 7e82 a6bc a1af d23b 2512 f8bc c861 babd
000001c0: c072 9d3c c651 80bd f2b8 0b3d aced 14bd
000001d0: da99 4bbc 9020 b9bc 4080 94bb 306d 99bd
000001e0: 8634 5f3d b22e 5cbc 5c39 97bd 4ca5 523d
000001f0: cb60 fabb e8ad bdbc 4022 1e3d 816e 1a3d
00000200: 5bf7 3cbb e954 733d ae19 503d 8234 963d
00000210: 611e 95bd 5b9e bcbd 6f8a 153d b9a9 97bc
00000220: 5865 0f3d 981d 803d 2493 5a3c 0b65 9bbc
00000230: 114d 17bd aa8b 41bd f15f 543d d29e 103d
00000240: 9437 863a 8a11 b8bd ea15 d8bb 727b 2c3a
00000250: 5ba0 7bbd 8eb4 433d 177f 883d 8b27 5c3c
00000260: 08e8 dd3c 515c 79bd 2d2c d63c a909 0a3d
00000270: 5ef1 43bd 95ae 2abd 3338 04bd 5314 25bd
00000280: 0b67 f5bc e966 133d 3ef2 363d fccd 823d
00000290: 5e5f 7dbd 6110 31bc 1239 953c 1f41 883b
000002a0: ef7e 8cbd 74a5 f6bc d278 263d 86d2 76bd
000002b0: 20df a8bb 19d9 babc 4e7e a5bc 67af 72bd
000002c0: 64f0 3b3c b96f 5cbd c85d bf3b 05a9 243b
000002d0: 7700 a1bd 32b4 a5ba 5f30 403d 6068 3a3d
000002e0: 3914 aebd 0f88 89bd 4571 0cbb 172f 32bc
000002f0: bfb3 203d 34dc d43d 9706 293d 384e 20be
00000300: ed4d f23d 402f 22bd 9b34 7f3d 75ab 27be
00000310: ebc0 c03c 049c 113e d971 e93d ced0 393e
00000320: 8aba 1c3d cb79 283d 12d7 c1bc 48c2 06be
00000330: 71c4 54bc 7812 b6bd b6a7 c3bd 8a24 c33c
00000340: c43d c23b 91a1 8d3e fd2a 14be 8491 f0bd
00000350: 1322 473d 83b1 35bb 2569 153c a27c 023d
00000360: dd24 2c3d 7ec8 b5bb 8442 98bc 847c 26bd
00000370: d5cc fd3c e67c 8ebd f5bf 8e3d c1de 91bd
00000380: c59e fd3c c272 d8bc 531e 7f3c a07b a63b
00000390: add6 e03b a0b7 49bc f476 60bd c14f 07bd
000003a0: 940d 55bd f5e3 30bd 449e 133d d3cb 31bd
000003b0: ade9 c4bc 21f4 ba3b fd87 cabc 4c7d ec3c
000003c0: 566d 823d d21c 3abb a7c9 803d f9bf a0bd
000003d0: 05a3 25bd f455 a138 607c 4b3d a19b 8d3b
000003e0: f520 31bd 4b89 ccbc 0349 4e3d d53c 3a3d
000003f0: d522 52bd 5c41 c73c 2503 03bd 86b3 12bd

i2h.bias f4 [128]
0.018027151 0.24761535 -0.07055465 0.24428007 0.037975542 -0.16334839 -0.023883812 0.41913038
0.051041678 -0.23083988 -0.09869087 0.10721719 0.010664077 0.033537652 0.119527586 0.07856269
-0.20332809 0.06676721 0.10797823 -0.24850366 0.01826727 -0.07954872 -0.021280536 -0.23368624
-0.06583802 0.24519631 -0.109107524 0.32549357 0.12402765 -0.015427704 -0.0074536544 0.008121396
0.048882715 -0.25821632 0.2538712 -0.29249218 0.09318379 0.28298676 -0.15656579 0.049591344
-0.22019349 -0.1998572 0.12569262 -0.08200104 0.032540392 -0.09435098 0.25425717 0.048905503
-0.27802038 0.043952238 0.22524412 0.20576146 0.17848703 0.04018168 -0.13324247 -0.0052923313
0.068524405 0.1726693 -0.035096847 0.010551919 -0.045497816 -0.08172635 -0.06563796 -0.07616427
-0.18370256 -0.020890178 -0.012571165 0.060697086 -0.1676979 0.15400724 0.0655312 -0.1756863
-0.3063918 -0.08016114 0.051533576 -0.20528138 -0.04554416 0.11625528 0.056689136 -0.124210514
0.0852344 -0.10694016 -0.018917767 0.054251324 0.29449627 0.17452912 0.15545961 -0.07909663
-0.10262095 -0.15852536 -0.30595294 -0.020972822 -0.053992204 0.0009864547 -0.05646093 -0.05255388
0.016415529 0.11868811 -0.27158153 0.026196511 -0.06293594 0.38724196 -0.3275066 -0.18164176
0.043985922 -0.16972046 -0.026412327 0.025032382 0.14274196 -0.011718376 -0.15748896 -0.20252515
0.14556836 0.061579734 0.09736763 -0.321962 0.28580725 0.32002705 0.27178252 0.3263869
-0.061246827 0.0043359003 0.042000685 0.0016966104 -0.06866487 -0.24577025 -0.074722745 0.22141682
00000000: adad 933c e18e 7d3e f57e 90bd 8e24 7a3e
00000010: 3e8c 1b3d cd44 27be fca7 c3bc 4298 d63e
00000020: 1411 513d 4a61 6cbe 701e cabd b094 db3d
00000030: 61b8 2e3c c75e 093d e1ca f43d 7ae5 a03d
00000040: 3d35 50be 3fbd 883d b123 dd3d be77 7ebe
00000050: 3ea5 953c 70ea a2bd 8554 aebc 724b 6fbe
00000060: 15d6 86bd be14 7b3e c473 dfbd 18a7 a63e
00000070: 3502 fe3d 7bc4 7cbc c93d f4bb 9b0f 053c
00000080: 3e39 483d ee34 84be 68fb 813e 89c1 95be
00000090: 25d7 be3d a4e3 903e c852 20be 4b20 4b3d
000000a0: 677a 61be 5ea7 4cbe 91b5 003e 29f0 a7bd
000000b0: 1349 053d 163b c1bd ff2d 823e 2351 483d
000000c0: b058 8ebe 4307 343d 65a6 663e 22b3 523e
000000d0: 4ec5 363e 8c95 243d b770 08be 4b6b adbb
000000e0: 8656 8c3d 39d0 303e b6c1 0fbd f5e1 2c3c
000000f0: eb5b 3abd 2560 a7bd 326d 86bd 03fc 9bbd
00000100: 861c 3cbe e121 abbc 4af7 4dbc 829d 783d
00000110: 00b9 2bbe 13b4 1d3e 3935 863d 1ce7 33be
00000120: 63df 9cbe 862b a4bd df14 533d 4835 52be
00000130: 838c 3abd 4017 ee3d de32 683d 1562 febd
00000140: 608f ae3d 7103 dbbd 6ff9 9abc a336 5e3d
00000150: 37c8 963e c3b7 323e ce30 1f3e 6afd a1bd
00000160: ef2a d2bd 7954 22be dda5 9cbe 32cf abbc
00000170: ee26 5dbd ed4b 813a 9343 67bd bd42 57bd
00000180: dc79 863c c012 f33d bc0c 8bbe 119a d63c
00000190: 8fe4 80bd 9444 c63e f2ae a7be 4c00 3abe
000001a0: 952a 343d 33cb 2dbe aa5e d8bc b610 cd3c
000001b0: f32a 123e 6efe 3fbc c944 21be c162 4fbe
000001c0: df0f 153e 083b 7c3d ae68 c73d 34d8 a4be
000001d0: 5455 923e 96da a33e 1427 8b3e 2f1c a73e
000001e0: f4dd 7abd 2b14 8e3b e908 2c3d cc60 de3a
000001f0: 2ba0 8cbd 32ab 7bbe 3d08 99bd 17bb 623e

i2o.weight f4 [59, 189]
0.07309273 0.07751422 -0.13144629 0.19038768 -0.0021132887 0.07930082 0.0709328 0.0686094
0.13941509 0.17101426 -0.28954425 0.039768226 -0.012327566 -0.0021838942 0.14904058 -0.18561023
-0.015308193 -0.0072818073 0.12917744 -0.08540609 -0.21848038 0.06479756 -0.16243401 0.024903085
0.020084098 0.10704648 -0.13557877 0.052651476 -0.021468036 -0.055349056 0.052476704 -0.003320974
-0.05814499 0.03389024 -0.04159096 -0.070168115 -0.011769246 -0.0067078406 -0.028069107 -0.003512313
0.06323027 0.038556438 -0.0037497303 -0.05234198 0.034302555 0.0061194566 0.029731411 -0.029692573
-0.06755704 -0.03368651 -0.02142174 -0.054757524 0.07190175 0.047241677 -0.015744284 -0.043876167
-0.05405567 0.054291733 -0.020006366 -0.028948667 0.031340186 -0.07303925 -0.023903025 -0.04517457
0.041466825 0.029023897 0.00035608668 0.044462256 -0.035934333 -0.0061498736 -0.059558373 -0.061118554
-0.07531318 0.019968256 0.025813656 -0.00043525387 0.051903374 0.07094846 0.052044626 -0.047721498
0.052130166 0.0055980375 -0.001846069 0.017274903 0.046750426 -0.05943778 -0.02354036 -0.043346353
0.031171544 0.047021005 0.06421119 -0.03331662 -0.085987546 -0.051032137 -0.0040077474 -0.035569776
-0.09073646 -0.053394932 -0.054610107 0.035596214 -0.034273732 0.07520808 0.05072916 0.016518911
0.052318864 0.03460443 -0.009453205 -0.03443761 -0.051936954 0.0015820456 0.022671761 -0.014104067
0.06671121 0.0053040707 -0.06046231 -0.049329072 -0.058658626 -0.0025633571 -0.097821295 0.001998922
0.06143151 -0.07293507 -0.028327372 0.0203879 0.053019807 -0.012840276 0.009227513 -0.082214534
-0.054174904 -0.03874698 0.033823814 0.072521664 0.07134559 -0.05400768 0.02093844 0.00017527094
-0.022346858 0.043932732 0.059020292 0.043532304 -0.011834999 -0.060620047 0.047405716 0.004917944
-0.08861015 0.023058536 0.011253479 -0.007559083 -0.0656456 0.017588114 -0.06687179 -0.011008926
-0.020962618 0.0500316 0.045017008 -0.018798903 0.068491325 0.050626248 -0.00084151357 -0.02769924
0.007884365 -0.0019535744 0.034434848 -0.024255898 -0.0072333743 -0.0037962731 -0.009064735 0.06711246
0.03914081 -0.074143775 0.07658644 0.057866838 -0.055441983 -0.042184047 0.023912804 0.0889143
-0.057989225 -0.04240395 -0.04278097 0.027005699 -0.0650799 0.022621077 0.013513848 -0.00200063
0.022872541 -0.015384039 -0.043267295 0.023516588 -0.050402984 -0.025385635 -0.044066604 0.07862298
0.0892872 -0.16653404 0.075258285 0.17258498 0.020080509 0.09644589 -0.116626665 -0.20016699
-0.025154058 0.0041358164 -0.049785584 -0.031468727 0.07641368 0.10285406 0.009158921 0.122389115
0.10528423 -0.098354995 -0.016822414 0.006992175 0.041434944 0.028380193 -0.054716744 0.01661378
-0.021047737 -0.06472643 -0.04864282 0.07087956 0.055274207 -0.041056424 -0.05035187 0.014641069
0.03980431 -0.059615497 -0.007438042 -0.03123159 -0.03599128 0.01459663 -0.06940346 0.058436014
0.02157477 -0.021702236 -0.06333636 -0.02358842 -0.015606971 0.014504341 -0.044810306 0.057727072
0.030812224 0.027151303 -0.039742988 -0.11065665 -0.049328852 -0.02689273 0.010504647 0.047962375
-0.1503489 -0.02227332 0.08913608 -0.09871207 -0.0060497075 -0.10087775 -0.007983473 0.07772297
00000000: a4b1 953d c6bf 9e3d db99 06be fdf4 423e
00000010: 1a7f 0abb 7868 a23d 3745 913d 1683 8c3d
00000020: d4c2 0e3e 5d1e 2f3e 253f 94be 02e4 223d
00000030: 8ff9 49bc aa1f 0fbb 189e 183e 9c10 3ebe
00000040: 37cf 7abc 3a9c eebb 1747 043e 63e9 aebd
00000050: 52b9 5fbe 95b4 843d 1a55 26be 8e01 cc3c
00000060: 6887 a43c 2f3b db3d 29d5 0abe 13a9 573d
00000070: bcdd afbc b1b5 62bd d0f1 563d b3a4 59bb
00000080: 7129 6ebd 7ed0 0a3d 485b 2abd 4db4 8fbd
00000090: ccd3 40bc 72cd dbbb 2ff1 e5bc d52e 66bb
000000a0: df7e 813d 5bed 1d3d 09be 75bb 8b64 56bd
000000b0: d680 0c3d b985 c83b 4a8f f33c d73d f3bc
000000c0: 585b 8abd defa 09bd a57c afbc 6d49 60bd
000000d0: 3a41 933d 7d80 413d 28fa 80bc 7fb7 33bd
000000e0: 7a69 5dbd 0261 5e3d 64e4 a3bc c125 edbc
000000f0: 915e 003d 9a95 95bd 47d0 c3bc f808 39bd
00000100: 1ed9 293d 86c3 ed3c 25b1 ba39 0e1e 363d
00000110: e12f 13bd e184 c9bb 7bf3 73bd 7357 7abd
00000120: cc3d 9abd 7894 a33c 2977 d33c c932 e4b9
00000130: a298 543d 6d4d 913d bf2c 553d 9e77 43bd
00000140: 7186 553d be6f b73b ccf7 f1ba 1984 8d3c
00000150: 607d 3f3d 0875 73bd b7d7 c0bc f28b 31bd
00000160: 775b ff3c 1999 403d 2881 833d 0277 08bd
00000170: 3d1a b0bd 1307 51bd 6c53 83bb 9db1 11bd
00000180: 0ad4 b9bd a5b4 5abd d9ae 5fbd 56cd 113d
00000190: 9d62 0cbd b206 9a3d 61c9 4f3d ab52 873c
000001a0: 4e4c 563d 60bd 0d3d 9ee1 1abc 740e 0dbd
000001b0: d8bb 54bd a45c cf3a 21ba b93c bf14 67bc
000001c0: e39f 883d c5cd ad3b 54a7 77bd 480d 4abd
000001d0: 0744 70bd fffd 27bb 8856 c8bd 5900 033b
000001e0: 9b9f 7b3d fb5e 95bd ce0e e8bc 8604 a73c
000001f0: 4c2b 593d 0560 52bc ff2e 173c 1860 a8bd
00000200: 81e6 5dbd 27b5 1ebd d78a 0a3d 3d86 943d
00000210: a31d 923d 2837 5dbd 1787 ab3c efc8 3739
00000220: c210 b7bc cff2 333d 43bf 713d ee4e 323d
00000230: 95e7 41bc ba4c 78bd 7f2c 423d b426 a13b
00000240: 3d79 b5bd 41e5 bc3c 8360 383c 2fb2 f7bb
00000250: 3371 86bd f314 903c 14f4 88bd c85e 34bc
00000260: ccb9 abbc efed 4c3d c163 383d 2800 9abc
00000270: 2e45 8c3d 785d 4f3d 0599 5cba 84e9 e2bc
00000280: 6c2d 013c 8a07 00bb 8e0b 0d3d 4eb4 c6bc
00000290: f105 edbb e5ca 78bb 4184 14bc 4272 893d
000002a0: 1d52 203d b1d8 97bd 5ad9 9c3d c705 6d3d
000002b0: 2217 63bd 2ec9 2cbd c9e4 c33c b318 b63d
000002c0: 1c86 6dbd c4af 2dbd 193b 2fbd 0e3b dd3c
000002d0: 9c48 85bd d64f b93c 3069 5d3c 001d 03bb
000002e0: 325f bb3c 560d 7cbc 0c39 31bd dca5 c03c
000002f0: 5c73 4ebd 89f5 cfbc 2f7f 34bd 1605 a13d
00000300: 35dc b63d e687 2abe 0421 9a3d 1eba 303e
00000310: e17f a43c 6c85 c53d f6d9 eebd 93f8 4cbe
00000320: e20f cebc be85 873b f8eb 4bbd 5ae5 00bd
00000330: c77e 9c3d 26a5 d23d 4d0f 163c 25a7 fa3d
00000340: 429f d73d 586e c9bd 29cf 89bc 9d1e e53b
00000350: b0b7 293d 947d e83c aa1e 60bd 9f19 883c
00000360: 4e6c acbc 4a8f 84bd b23d 47bd 4e29 913d
00000370: 3567 623d c82a 28bd c33d 4ebd 18e1 6f3c
00000380: d809 233d 612f 74bd d2ba f3bb 64d9 ffbc
00000390: 986b 13bd b426 6f3c 6723 8ebd 9a5a 6f3d
000003a0: 92bd b03c e3c8 b1bc 7eb6 81bd 813c c1bc
000003b0: 62b4 7fbc 9ea3 6d3c 038b 37bd 3973 6c3d
000003c0: eb69 fc3c 696c de3c 8bc9 22bd f49f e2bd
000003d0: 0d0d 4abd 244e dcbc af1b 2c3c 3274 443d
000003e0: 10f5 19be 8a76 b6bc fa8c b63d 8e29 cabd
000003f0: a03c c6bb fe98 cebd 1dcd 02bc 382d 9f3d

i2o.bias f4 [59]
0.120058216 -0.00018835679 0.15722454 -0.3485495 0.16462621 -0.2535131 0.111166835 0.00058160385
0.017336564 0.11339825 0.1868906 -0.047648318 0.12760162 -0.06673114 0.2401757 -0.03425232
0.13289742 0.20103611 -0.123553865 -0.2870227 -0.002368769 -0.07330702 0.08813313 -0.3135514
0.046125952 0.26487428 0.029063301 -0.006703358 -0.0948506 -0.013466581 -0.3199245 -0.2190644
-0.109277666 0.03942713 -0.066880465 0.3931193 -0.53957695 0.17326082 0.055793136 0.11429342
-0.2411696 0.03427468 -0.058099158 0.12405467 -0.121962585 -0.21058528 -0.1445206 0.06486752
-0.2468415 -0.10915188 0.2244366 -0.06005238 -0.06295378 0.14689718 -0.15567034 -0.008517662
-0.022647796 -0.119271874 0.23096538
00000000: 15e1 f53d a481 45b9 78ff 203e 1475 b2be
00000010: c693 283e 78cc 81be 70ab e33d c676 183a
00000020: 6905 8e3c 573d e83d 4060 3f3e e22a 43bd
00000030: 00aa 023e 56aa 88bd 9ef0 753e 294c 0cbd
00000040: 4316 083e 69dc 4d3e cf09 fdbd a4f4 92be
00000050: 593d 1bbb fe21 96bd 247f b43d cf89 a0be
00000060: 91ee 3c3d 9a9d 873e 2916 ee3c d8a7 dbbb
00000070: 0841 c2bd efa2 5cbc 25cd a3be 6b52 60be
00000080: f8cc dfbd 587e 213d a0f8 88bd ef46 c93e
00000090: b721 0abf 496b 313e 5887 643d ab12 ea3d
000000a0: 2af5 76be 9b63 0c3d 62f9 6dbd 6010 fe3d
000000b0: 85c7 f9bd aba3 57be 35fd 13be 43d9 843d
000000c0: 05c4 7cbe 058b dfbd b5d2 653e 7cf9 75bd
000000d0: e9ed 80bd 376c 163e 0c68 1fbe aa8d 0bbc
000000e0: df87 b9bc d044 f4bd 3082 6c3e

o2o.weight f4 [59, 187]
-0.06742054 0.049881313 0.022263207 0.19626348 -0.03363354 0.04263156 0.27793384 0.0044505466
-0.074105226 0.07238276 0.19931677 0.059306897 -0.13250875 0.1801437 0.109881505 0.11187791
-0.15281309 0.0044262884 0.1271582 -0.022309247 -0.013504321 -0.19546863 0.037637252 -0.2508133
0.047825355 0.15915018 -0.17570597 0.05667 0.15634197 0.013912908 0.13474001 0.17805745
-0.034119733 -0.09033296 0.05840731 0.09083605 0.0026780567 -0.017044038 0.0452621 0.03547181
0.053696897 -0.20688465 0.0016410425 0.062007014 -0.04198943 -0.43961895 0.32072607 -0.101749696
-0.24685647 -0.023437975 0.103363976 -0.053676575 0.12299671 0.0017948449 0.21033648 0.11798457
-0.26685062 0.20220535 0.12606364 -0.13207023 0.15960151 0.030652102 -5.3622734e-05 0.08399599
-0.08695746 -0.013861334 -0.13051571 0.01903611 0.08818449 0.08031505 -0.1625042 -0.17244639
0.18727541 0.0023224514 0.18774909 -0.08110759 -0.010199277 0.019311357 -0.06427465 -0.064990334
-0.09282135 -0.019097693 0.091991894 0.08629367 -0.0006743787 -0.047214333 0.15157582 0.043561015
0.12214971 -0.012457937 -0.14806841 -0.0704046 0.17437853 -0.004509625 -0.09366649 -0.2605102
-0.014632338 0.18373322 0.15622582 0.011582861 0.13066316 0.067528754 0.120917745 -0.12157838
-0.09120787 -0.12302703 -0.010468985 -0.1682275 0.21663313 0.033400863 -0.010037922 -0.0490849
-0.02092148 0.04195855 0.07536707 -0.20788258 0.17633599 -0.059606243 0.17370638 0.15073371
-0.17742287 0.2156265 -0.06924562 0.06611618 0.015679203 -0.2206094 0.064431354 0.060541432
0.109417275 -0.023412855 -0.020821825 -0.2476238 0.024994748 -0.040022552 0.031439383 -0.04430975
0.06041184 0.14812534 0.005656932 -0.10796197 -0.048329283 0.06000438 -0.102402136 -0.12218284
0.30235258 0.3284165 -0.17174347 -0.1238514 0.1830008 -0.124800965 0.0485108 0.13049665
0.03805656 0.032553688 0.007847705 -0.03108059 0.045868512 -0.120550685 0.16720495 -0.14381269
-0.15953279 0.2972817 -0.13850944 0.002295981 -0.033793304 -0.136906 0.011440565 0.053367868
-0.06301834 0.0124090705 -0.22581498 -0.07955601 -0.21612366 -0.01879708 0.0014976005 0.08636035
0.2200089 -0.05315421 0.0997364 0.113974646 -0.19717242 -0.16395774 0.06806503 0.115022294
-0.24412942 0.08527847 -0.028098186 -0.059966568 -0.12683384 -0.03598926 -0.15361877 0.06304232
-0.07345925 -0.056712158 -0.0050147125 -0.11811549 0.06513814 0.04444323 0.22099495 -0.022704504
0.07259295 0.004526666 -0.08713142 0.16862819 0.014519135 -0.070191644 0.06819072 -0.19563532
-0.050467867 -0.11786426 0.12402163 -0.14055662 0.011025768 0.08007414 0.10026038 0.03867854
-0.023450246 0.05215107 -0.0820574 -0.123856105 0.18189631 0.040867347 -0.095289126 0.13625419
0.116438486 -0.077334344 0.085094176 -0.05695246 0.09160891 0.11536676 0.041475028 -0.11288519
0.16552918 -0.14360708 -0.061067298 0.014040582 0.044298448 0.07307841 -0.058196872 -0.21198133
0.001816102 -0.04824927 0.1118981 0.18356293 0.09663781 -0.08780857 0.109983765 -0.034961455
0.06364855 -0.10278366 0.112084046 -0.07884123 -0.04803202 0.12476749 -0.0129257785 0.09499765
00000000: c813 8abd 5950 4c3d 5461 b63c 4bf9 483e
00000010: 53c3 09bd 6e9e 2e3d 584d 8e3e e4d5 913b
00000020: 7bc4 97bd 6a3d 943d b219 4c3e caeb 723d
00000030: 60b0 07be 9777 383e 8e09 e13d 3f20 e53d
00000040: 097b 1cbe 660a 913b c235 023e e2c1 b6bc
00000050: 3a41 5dbc ee28 48be 8529 1a3d 9a6a 80be
00000060: 85e4 433d 44f8 223e 44ec 33be cd1e 683d
00000070: 1c18 203e f7f2 633c 49f9 093e b154 363e
00000080: 22c1 0bbd 7d00 b9bd 813c 6f3d 4008 ba3d
00000090: 5682 2f3b f09f 8bbc c064 393d e34a 113d
000000a0: 47f1 5b3d 92d9 53be 4018 d73a 11fb 7d3d
000000b0: 1cfd 2bbd bc15 e1be 3536 a43e 2562 d0bd
000000c0: f1c7 7cbe ff00 c0bc 7eb0 d33d f8db 5bbd
000000d0: b3e5 fb3d 0041 eb3a 7262 573e e5a1 f13d
000000e0: a5a0 88be eb0e 4f3e d416 013e 6b3d 07be
000000f0: 946e 233e 1e1a fb3c f9e8 60b8 1706 ac3d
00000100: c116 b2bd a61a 63bc e9a5 05be 9ef1 9b3c
00000110: 129a b43d 387c a43d 8067 26be c995 30be
00000120: 20c5 3f3e 4534 183b 4c41 403e bc1b a6bd
00000130: de1a 27bc da32 9e3c 6da2 83bd a719 85bd
00000140: 1f19 bebd c472 9cbc 3f66 bc3d bcba b03d
00000150: cac8 30ba d163 41bd b136 1b3e 096d 323d
00000160: a129 fa3d 601c 4cbc 3f9f 17be 4930 90bd
00000170: 4990 323e 7ac5 93bb 37d4 bfbd 9861 85be
00000180: 79bc 6fbc 9024 3c3e a9f9 1f3e 0ac6 3d3c
00000190: 90cc 053e 844c 8a3d b9a3 f73d 16fe f8bd
000001a0: 31cb babd 98f5 fbbd 1b86 2bbc d443 2cbe
000001b0: 13d5 5d3e 58cf 083d 1976 24bc 400d 49bd
000001c0: 8663 abbc bbdc 2b3d 0d5a 9a3d 2cdf 54be
000001d0: 6c91 343e ad25 74bd 16e0 313e f059 1a3e
000001e0: 57ae 35be 31cd 5c3e a6d0 8dbd eb67 873d
000001f0: ac71 803c 6ee7 61be 96f4 833d 4bfa 773d
00000200: 2a16 e03d 51cc bfbc 8892 aabc 1891 7dbe
00000210: c9c1 cc3c b0ee 23bd 95c6 003d 247e 35bd
00000220: 6872 773d 2bae 173e c95d b93b 2a1b ddbd
00000230: edf4 45bd 27c7 753d 36b8 d1bd ff3a fabd
00000240: f5cd 9a3e 3526 a83e 85dd 2fbe cea5 fdbd
00000250: 9064 3b3e a697 ffbd 43b3 463d eaa0 053e
00000260: 32e1 1b3d 0457 053d a993 003c b99c febc
00000270: 9fe0 3b3d 47e3 f6bd c637 2b3e a243 13be
00000280: 905c 23be 4f35 983e 6bd5 0dbe 2b78 163b
00000290: d96a 0abd 1631 0cbe 3571 3b3c 4498 5a3d
000002a0: c20f 81bd 6a4f 4b3c 0b3c 67be 43ee a2bd
000002b0: 854f 5dbe 55fc 99bc 224b c43a b2dd b03d
000002c0: 034a 613e 3bb8 59bd 9942 cc3d 8a6b e93d
000002d0: 91e7 49be 8ae4 27be ae65 8b3d cf90 eb3d
000002e0: 10fd 79be 7aa6 ae3d 2b2e e6bc 819f 75bd
000002f0: bbe0 01be 7969 13bd 3d4e 1dbe 551c 813d
00000300: ce71 96bd 024b 68bd 7552 a4bb 89e6 f1bd
00000310: 2567 853d 1b0a 363d 804c 623e ccfe b9bc
00000320: 9dab 943d 6d54 943b f571 b2bd deac 2c3e
00000330: aae1 6d3c a3c0 8fbd 94a7 8b3d a054 48be
00000340: 65b7 4ebd d162 f1bd 0dff fd3d 13ee 0fbe
00000350: 6ca5 343c e9fd a33d 5055 cd3d 646d 1e3d
00000360: bb1a c0bc 5c9c 553d b60d a8bd 45a8 fdbd
00000370: 0743 3a3e 8564 273d f226 c3bd 3886 0b3e
00000380: 4d77 ee3d 7861 9ebd db45 ae3d fc46 69bd
00000390: 749d bb3d 6845 ec3d b8e1 293d 5a30 e7bd
000003a0: 7b80 293e bc0d 13be b421 7abd 780a 663c
000003b0: 4a72 353d 22aa 953d d85f 6ebd a211 59be
000003c0: 450a ee3a 07a1 45bd d52a e53d ecf7 3b3e
000003d0: 0bea c53d fbd4 b3bd 2b3f e13d be33 0fbd
000003e0: 2c5a 823d 3d80 d2bd 528c e53d 8377 a1bd
000003f0: 39bd 44bd 1986 ff3d a5c6 53bc 218e c23d

o2o.bias f4 [59]
0.25055292 -0.042319074 0.078127936 0.012971739 0.37404588 -0.00043930116 -0.0990505 -0.043858528
0.16642027 -0.08906498 -0.1079498 0.083269365 0.064241275 0.099162735 0.3179138 0.07679196
-0.21376729 0.260545 0.008119876 0.12819767 0.18474084 -0.1071225 -0.2423255 0.040630836
0.022770135 -0.1676535 -0.21439087 -0.1476546 -0.2551821 -0.16772692 -0.26882705 -0.22138265
-0.17524561 -0.16546151 -0.1734907 -0.20106828 -0.20917965 -0.19991714 -0.1893776 -0.22684228
-0.2496315 -0.21305041 -0.19854188 -0.14820318 -0.20235625 -0.15214805 -0.21915068 -0.27203307
-0.21524104 -0.1871908 -0.21472968 -0.18377306 -0.20597143 -0.1682864 -0.19595915 -0.25893837
-0.20090678 -0.116933584 -0.054296326
00000000: 7948 803e c456 2dbd 8a01 a03d 6b87 543c
00000010: f182 bf3e 0152 e6b9 fdda cabd 00a5 33bd
00000020: 136a 2a3e b367 b6bd c914 ddbd 2189 aa3d
00000030: ee90 833d d515 cb3d 99c5 a23e 1a45 9d3d
00000040: d0e5 5abe 2766 853e 3a09 053c 4046 033e
00000050: b42c 3d3e 0b63 dbbd 2d24 78be 856c 263d
00000060: 6f88 ba3c 5cad 2bbe 4889 5bbe c432 17be
00000070: 3aa7 82be 9bc0 2bbe b3a3 89be 22b2 62be
00000080: 9673 33be be6e 29be 8ca7 31be d8e4 4dbe
00000090: 3133 56be 14b7 4cbe 34ec 41be 5849 68be
000000a0: 669f 7fbe e329 5abe 904e 4bbe 93c2 17be
000000b0: 7a36 4fbe b3cc 1bbe 0969 60be eb47 8bbe
000000c0: 2668 5cbe f2ae 3fbe 19e2 5bbe 012f 3cbe
000000d0: 2dea 52be 4553 2cbe 84a9 48be 9293 84be
000000e0: 82ba 4dbe e07a efbd d365 5ebd
