utils/rnn_model.pth (torch, 31068 bytes, 6 tensors)

rnn.weight_ih_l0 f4 [64, 43]
00000000: 40d9 11be d0a4 a8bd 1c57 b3bb 51dd 99bd
00000010: 05bd 1abe abdc 23bd 3b7a 82bd f4e8 313d
00000020: bef8 35bb cd8d c7bd d49b debd a07a 723c
00000030: 0ea0 053d 04ec f23b 807d f6bb d2fa 053d
00000040: 145c b83d bbbc 01be 1dc9 ae3d d719 c03c
00000050: 479e 3f3b 3b69 d33d 2b27 103c 7d33 343b
00000060: 7d83 95bd b82d 61bd a19c e2bd c98c 7b3d
00000070: 6f66 c2bd eae9 c2bd 4972 e7bd 2929 c63d
00000080: b74a 07bc e952 1dbe 09c2 76bd 878e 203d
00000090: 06e6 863d 7f2d 98bd a73d 9dbd e62d 2cbc
000000a0: f22d 69bd 0da4 d23d 0007 c1bd c103 9d3e
000000b0: 8cb2 793c 1c85 cd3b b54d ecbc bbb4 783e
000000c0: 1d56 bdbd 7c69 673d 73dc fcbd 1502 7dbc
000000d0: e064 afbd 1c34 cc3d d865 a1bd e9e5 03bc
000000e0: 8389 a3bc 0cc5 6fbd 6bba bcbd 463a 4bbc
000000f0: c74b 023d 67b1 e9bd f050 bc3b dc35 48bb
00000100: d85d 5c3d b1d0 953d 9305 fbbd 49e8 92bd
00000110: 84ce ca3d cbf3 e23d 899e 8ebc f5f4 673d
00000120: 72d7 a3bc 3fce 87bd 044c cebb a9bc 503c
00000130: 9fdb 43bd 4ae0 903d 18cd 8e3d 68cc 4abd
00000140: 0b3c d9bd 90bb 9dbd d172 5c3c 1319 c83d
00000150: a2b5 b33d a038 1f3d 210d 71bc 56a4 9dbc
00000160: 8290 bbbd 03d2 cd3c 7ce4 e3bc f137 ea3d
00000170: 0a03 133e 80af 8f3d 7ca3 b7bd e8f2 35bd
00000180: b553 4b3d ffc3 bbbb 3eb8 b9bc 95b7 bd3c
00000190: 5cae 02bd 8bf2 9d3d 265b f53d 7059 a9bc
000001a0: 49c1 90bd b805 f2bd 641c 08be a3cb e6bd
000001b0: 5765 dc3d d806 913c 8726 97bd 8936 6b3c
000001c0: 7057 153c d490 8c3d fd5c 0c3b 6507 9bbd
000001d0: dcc1 bd3d 001b dcbd 9ca4 9e3b 3038 3ebe
000001e0: b8fa 1d3d 213a 80bd ba45 013d 9cfd 30bc
000001f0: 6726 0cbd fd62 7cbd cafb f43b b2b5 5ebd
00000200: c733 433b f9de 28be 4756 613d c521 05be
00000210: 21ec 8c3d 114f d8bd 3722 4339 6c13 43bd
00000220: 30ca 1d3c b426 ad3d 8647 d7bd cbf9 62bd
00000230: 58d7 61bd b09d 8bbb 3a50 283e 5f4d fc3d
00000240: d78e fdbd bd90 4e3d 6a4e 37bd a5a2 ba3d
00000250: ff14 65bd 2e7b 82bd f3cc fe3d 0d7a 00be
00000260: 2018 6c3d b438 80bc 59ad b1bc 6884 b3bc
00000270: 826d 863c 679a c4bd 54cf 04bd 8abd e33d
00000280: aa5f d3bd 1dec 2cbc 44cc 023e 8db4 e0bd
00000290: 0ae7 efbd 2ff1 f63d 3f48 c9bd d3e1 7cbd
000002a0: 912b 2bbd 6135 c1bd ba5b c53d 2f8f 76bd
000002b0: 6723 8ebd a182 833d 33fc 9ebd e450 1fbd
000002c0: baac eb3c 9bbf e33d d4dd 5d3d a228 c53d
000002d0: d4d5 ad3d c379 04bd d60b 253b 7c40 e8bd
000002e0: 1f46 41bc 5569 01be f43c 91bd 23b8 76bd
000002f0: 69c2 513d 65b4 893b 8c45 84bc 17f7 b5bd
00000300: d6d2 15be 76b5 c0bc bf73 cc3c 6945 963d
00000310: 23f6 b6bd 3a69 db3c cdac f73d a402 d73c
00000320: 922e 683c 960d 983c b074 fd3d 6b38 043e
00000330: a115 11bc f6f2 d6bd 9877 b2bd 0cf4 3abc
00000340: ce1e 94bd 7117 2ebd 8d4e 45bd 13d9 b53d
00000350: 24f2 debc 24b3 df3d 2a88 02bd adac 513d
00000360: 9921 86bd 8902 91bd 128b 3fbd 88da fdbc
00000370: 396d 9f3d 93d2 a7bb 9340 d9bd af7e 803d
00000380: 0076 78bd f982 9b3d f36c a23d a1e4 a1bd
00000390: 9e33 89bd abd3 b9bb 5611 85bd bb9a dcbd
000003a0: 4c99 103e 10dd 163d e407 3c3e a5c9 273d
000003b0: ee39 913d 2f5e 913d 210f d5bd 09fa b73d
000003c0: ab81 ea3d 2cf4 57bc f08f 8d3d e29e a13b
000003d0: 31c5 c53d 2717 8c3d d945 4d3d 87fe 5fbc
000003e0: 6be9 16be 2195 b1bd 1759 c53d b563 093c
000003f0: 411d cc3d 0cab 863d fa08 e03d 3ffa 8f3d
-0.1424303 -0.082345605 -0.0054730307 -0.07512916 -0.15111168 -0.040005367 -0.0637097 0.043435052
-0.002776667 -0.09743843 -0.108695656 0.014799744 0.032623343 0.007413389 -0.007522285 0.032709904
0.090019375 -0.12669651 0.08534453 0.023449821 0.0029238628 0.103228055 0.008798401 0.002749651
-0.0730047 -0.05497524 -0.11065031 0.06141356 -0.09492194 -0.09517272 -0.11301095 0.096758194
-0.0082575595 -0.15363659 -0.06024364 0.039198425 0.06586842 -0.07430553 -0.07677775 -0.01050899
-0.056928582 0.102851965 -0.09425163 0.30666927 0.015240323 0.0062719714 -0.028845647 0.24287693
-0.092449404 0.056497082 -0.12346735 -0.015442391 -0.08564162 0.099708766 -0.07880753 -0.00805042
-0.019963032 -0.058537528 -0.09215244 -0.01240403 0.03181055 -0.1141079 0.005746953 -0.003054968
0.053800434 0.07315195 -0.122569226 -0.07173211 0.09902671 0.11081656 -0.01740958 0.056630094
-0.020000193 -0.06631135 -0.006295683 0.012740293 -0.04781687 0.0707403 0.06972712 -0.049511343
-0.106071554 -0.0770179 0.013455109 0.097704075 0.08774878 0.03887236 -0.014712603 -0.0192434
-0.09158422 0.025124555 -0.02781891 0.11436451 0.14356628 0.07015896 -0.08966729 -0.044421107
0.049640376 -0.0057301517 -0.022670861 0.023158828 -0.031904563 0.07712277 0.11980276 -0.02067253
-0.07068116 -0.11817497 -0.1329208 -0.11269309 0.107615165 0.017703459 -0.073803954 0.014356264
0.009115085 0.06863561 0.002141773 -0.0756977 0.09265491 -0.10747337 0.0048414003 -0.18576121
0.038569182 -0.06261087 0.031560637 -0.010802653 -0.03421631 -0.06161784 0.0074763047 -0.054372497
0.00297855 -0.16491307 0.05501392 -0.13001163 0.068809755 -0.10561956 0.00018609395 -0.047625944
0.009630725 0.08454648 -0.10511689 -0.055414002 -0.05513701 -0.004260741 0.16436854 0.12319445
-0.1238076 0.050431002 -0.044752516 0.09113053 -0.055928227 -0.06371151 0.12441435 -0.12546559
0.057640195 -0.015652038 -0.021689104 -0.021913722 0.01640964 -0.095997624 -0.032424286 0.11120136
-0.10320981 -0.010554341 0.12773234 -0.10971937 -0.11713989 0.12057721 -0.09828233 -0.0617388
-0.041789595 -0.09434009 0.09636636 -0.060195144 -0.06940346 0.064214 -0.07762947 -0.038895503
0.028768886 0.1112053 0.05416663 0.09626891 0.0848805 -0.032342684 0.0025184057 -0.113404244
-0.011796503 -0.12637837 -0.07091704 -0.0602342 0.051210795 0.004202413 -0.016146444 -0.08885019
-0.14631209 -0.023524027 0.024957536 0.07337458 -0.089336656 0.026783574 0.12093506 0.026246376
0.0141712595 0.018561166 0.12375772 0.12912147 -0.008855254 -0.1049556 -0.08714217 -0.011410724
-0.07232438 -0.042502824 -0.048170615 0.08879294 -0.027215071 0.1092284 -0.031868137 0.051190067
-0.06549377 -0.07080562 -0.046763487 -0.030987993 0.077845044 -0.005121538 -0.1060802 0.06274163
-0.06065941 0.075933404 0.07930937 -0.07904936 -0.06699298 -0.0056709847 -0.06497447 -0.107717
0.14120978 0.036831915 0.18362385 0.040963788 0.07091127 0.07098042 -0.10403276 0.08983237
0.114505135 -0.013180774 0.069122195 0.0049322704 0.09656752 0.068403535 0.05011544 -0.013671524
-0.1473748 -0.08671022 0.09636133 0.008385588 0.09966517 0.06575593 0.10939212 0.070301525

rnn.weight_hh_l0 f4 [64, 64]
00000000: 4667 713d a990 803d cadd 7a3d 8398 bebd
00000010: 79b8 f43d 7203 3d3c 94fb ef3d c593 433d
00000020: 7cac 7b3d be3a 453d e55d 20bd c58f 293c
00000030: 2cf2 42bc b9a5 b43d 68a4 96bd cc17 8f3d
00000040: 37a9 573d 936c c53d c5c1 aa3d c8c7 7abd
00000050: 5359 4cbd 81e6 9ebd b348 67bc 5083 1bbd
00000060: a921 cabd 545b dd3d 1c4b b8bd 294e 9ebd
00000070: 611f 9f3c b206 ebbc c1ad 2c3d 4a47 533c
00000080: 527c bdbd 8baa a6bb 23ba fdbd fd16 2c3d
00000090: cbc9 19bd 83d1 c93d 5e38 033d d0e1 843c
000000a0: ce27 363d 38e9 c33c 5d86 8fbd 6f11 bfbb
000000b0: b7e2 47bd 6310 aebd 4db3 733c abb6 a33d
000000c0: a369 eabc 2f5f edbc 25cf f4bc 1029 b5bd
000000d0: d1b3 31bc 73bd 26bd 048f 6a3c b087 c93b
000000e0: 7f59 ac3d 28c4 d43d 4db0 bcbd a461 923c
000000f0: 0c6c a4bd 60df ea3d 5ac7 923d 24b8 d03d
00000100: 80f4 5f3c 8488 15be 8977 1fbd 4b94 303d
00000110: 4886 4ebd a7ba cdbc 1125 b83c 209b 01be
00000120: 9203 f0bb 3edb bcbc a933 083e 9fd9 29bd
00000130: 4f7a 81bd 571f de3d 5bb4 6c3d 541c 3ebd
00000140: 08a7 2f3d c395 213e bd5d 933d 1994 16be
00000150: 2506 77bd e124 c33d d132 853d bfd3 98b8
00000160: 1fe7 acbd f45f 033e 693f 1dbd 7f8e 943d
00000170: 4c1d 86bc 4fb3 08be 93bc 4d3e 9510 713c
00000180: 9dfc bfba 3821 b5bd 39b7 2b3d 5321 cc3d
00000190: 1d21 4abd a89f 88bc 951c 37bb a536 433d
000001a0: 0a88 5d3d 9654 07be 88ce aebb 33bf 033e
000001b0: c7b6 143e 8ee1 723d e8c8 c4ba 1cf9 b6bd
000001c0: d94b a83c bc89 28bb cfd3 7ebd 2228 7a3d
000001d0: c53d bb3d 05ae b73d 1641 263c a31e 2bbc
000001e0: 80c9 ef3d 33dc 18be 2001 4fbd 682b a2bd
000001f0: d283 36bb d197 a73d 970b f0bd 39b1 d4bd
00000200: 867e 9dbc 8e79 83bc 7eda d8bd e727 8a3d
00000210: bcc4 d23d f75e 493c 69de 473d 3937 6b3d
00000220: 83a3 8abc 2d8d 5e3d a772 21bc 8bfd 21bd
00000230: 738b 9dbc f69e 67bc 6fbf 5abd de53 05bd
00000240: cfc1 fc3d 8fdf d3bd 69bd c0bc 22a6 babd
00000250: 9000 f13d 2365 1c3c 9f92 fbbc 250b d9bd
00000260: 40be 24ba dcef cfbd c9e6 5a3c 5a18 bf3c
00000270: 82ff cdbd 6543 03be 0dcc bbbc 1e11 913d
00000280: 44ac 52bd 886f a23d 255e a4bd 57cc ac3d
00000290: c42d bdbd ad80 f83d d196 14ba 1b23 843d
000002a0: 1709 50bd b1b1 ce3d 2ba8 f13d 46a9 043e
000002b0: 306f f53c d552 c4bc 6009 893c 9d52 8cbd
000002c0: 7cfd a9bc e140 40bb a0ac be3b 4701 bbbd
000002d0: 3064 c23d 6753 8dbd d3ac 99bd 2b24 82bb
000002e0: 2fee fa3d f702 7cbd acf8 303c f2fd 653d
000002f0: c318 b53d 5e01 dfbd 0189 66bc e9ff 4dbd
00000300: 8b4b d43d 5a46 a2bd 3d16 0dbc f625 7e3c
00000310: ff5f cbbd 2d21 c0ba 0229 b53b b2fd b63d
00000320: 86cb e03d c0a1 e7bd 5a8c 8d3d f5ce e33d
00000330: 6080 c33c 2bcb f13d ef17 d03d aca6 fdbd
00000340: 15fa 96bd 8066 35bd 5c7b 9e3d 0537 013e
00000350: 8cb9 733d 9a70 54bc 896d babd 718e 943c
00000360: 49ac 9a3d b305 253d 6cad 4bbd c48b b03c
00000370: 446c f13d f8fe b63d f838 89bc cf78 25bb
00000380: 345c 05bd 39f7 95bd 3576 ff3d c507 883d
00000390: 37ff 663d 3c39 6fbd 77b9 d03d 8e16 543c
000003a0: d44a 0bbd dc5b 70bd 71ee a6bd 990e e1bd
000003b0: 53a5 38bd ad15 1abe 7c51 08be 7429 bbbb
000003c0: 3dcb 2b3d a0cd 25be 7845 063d 155f fc3d
000003d0: ffc1 a73c ae32 cd3d 7d9e 103d 1d2e 35bd
000003e0: 416b 56bd 069c c1bd f1eb cbbd 8566 d1bd
000003f0: e3ec f33b af4c ae3d e197 153d 2a85 f33d
0.05893638 0.06277592 0.06124667 -0.09306433 0.11949248 0.011536466 0.117179066 0.047748346
0.06144379 0.048151724 -0.039152045 0.010349219 -0.011898559 0.088206716 -0.07355577 0.06986961
0.05265161 0.096398495 0.0833774 -0.061225682 -0.049889874 -0.07758809 -0.014116454 -0.037967026
-0.098697014 0.10808435 -0.08998701 -0.077297516 0.019424142 -0.028689716 0.042157892 0.012895415
-0.09252228 -0.0050862483 -0.123890184 0.04201411 -0.03754596 0.09854414 0.032036178 0.016220957
0.044471554 0.023914918 -0.0700805 -0.0058309357 -0.048800196 -0.08499219 0.014874292 0.079938255
-0.028614825 -0.028976051 -0.02988393 -0.08845723 -0.010846094 -0.040708017 0.014316324 0.0061502084
0.084155075 0.10388976 -0.09213314 0.017868824 -0.08028421 0.11468387 0.071669295 0.10191372
0.013669133 -0.14602858 -0.038932357 0.043110173 -0.05042103 -0.025113417 0.022478612 -0.12656832
-0.0073246444 -0.023053762 0.13300957 -0.041467305 -0.06322157 0.10845821 0.057789188 -0.046413735
0.042883903 0.15779786 0.071956135 -0.14704932 -0.060308594 0.095285185 0.06503833 -7.2873656e-05
-0.0844252 0.12829572 -0.03839055 0.072537415 -0.016371392 -0.13349651 0.20091467 0.014713426
-0.0014647428 -0.088442266 0.04192278 0.099672936 -0.049347986 -0.016677693 -0.002794062 0.047659535
0.054084815 -0.1321586 -0.005334679 0.12865905 0.14522849 0.059297137 -0.0015013488 -0.089342326
0.02054398 -0.0025716862 -0.062213715 0.06107343 0.09142641 0.089687385 0.010147354 -0.010444316
0.11708355 -0.1492775 -0.050538182 -0.07918435 -0.0027849567 0.081832536 -0.117209606 -0.10385365
-0.01922537 -0.016049173 -0.10588549 0.06745892 0.1029143 0.012290708 0.04879609 0.05742571
-0.016923672 0.054333854 -0.009853995 -0.039548438 -0.019231534 -0.01413702 -0.05340522 -0.032550685
0.123416536 -0.10345375 -0.023527818 -0.091137186 0.117676854 0.009545597 -0.030709563 -0.10597829
-0.0006284453 -0.101531714 0.0133606875 0.023327041 -0.100585 -0.12818678 -0.022924447 0.07083343
-0.051433817 0.07931429 -0.08025769 0.08437412 -0.09237245 0.12133918 -0.00056682253 0.06452008
-0.05078992 0.10092486 0.117996536 0.12955198 0.029960245 -0.023965279 0.016728103 -0.06851695
-0.020750754 -0.0029335546 0.0058189183 -0.09131103 0.094917655 -0.06900673 -0.07503667 -0.0039715967
0.12252461 -0.061526265 0.0108014755 0.056150384 0.088426135 -0.10888933 -0.01407075 -0.050292883
0.10365971 -0.07923575 -0.008611259 0.01551198 -0.09930419 -0.0014658325 0.00552857 0.08935107
0.10976319 -0.11310148 0.069115356 0.11123458 0.023864925 0.11806329 0.10160815 -0.12385306
-0.07371918 -0.044287205 0.07738373 0.12618645 0.059503123 -0.012966299 -0.091029234 0.018134328
0.07552392 0.04028864 -0.049725935 0.02155102 0.11788228 0.0893535 -0.016750798 -0.002524901
-0.032558635 -0.073225446 0.12473718 0.06642107 0.056395736 -0.058404192 0.101916246 0.012944831
-0.03400691 -0.058681354 -0.08150948 -0.109891124 -0.04507954 -0.15047331 -0.13312334 -0.0057117287
0.04194187 -0.16191721 0.032781094 0.12322823 0.020478247 0.10019432 0.035307396 -0.04423343
-0.05234838 -0.09453587 -0.099571116 -0.10224632 0.0074440106 0.0851072 0.036521796 0.118906334

rnn.bias_ih_l0 f4 [64]
00000000: 50e4 11be 94a2 b73c 4257 01bb ff0a f93d
00000010: b07c ba3d 8bd6 013e 85b0 90bd c202 d73d
00000020: 1fb5 813d f4d5 043c 403a fbbd 983d eb3d
00000030: a71c d5bd 825b 743d 39f2 be3d 00b1 703c
00000040: 0729 443e ee35 9b3d a9cd 8a3d 1ec3 033e
00000050: ec3a 0abe fda2 1dbd 981a 8dbd 0eea efbc
00000060: dca5 a2bd 3898 fc3c 2416 0f3d fad4 94bd
00000070: b050 1fbd c22c bc3d 3e4c 52be dde9 09bd
00000080: cd09 55be 00b1 893d dfac 033d 7b73 92bd
00000090: 8cb4 32bd 7f7e a73d 437b d43d cf69 3dbb
000000a0: 3d0b 403c 44f8 51bc 1bb4 97bd a790 463d
000000b0: 03c1 a03c ad7a 16bd fa7d 95bb da3c 633d
000000c0: a311 f8bd dd35 cf3d 7bb1 a23d 4874 0a3e
000000d0: 59e4 663d ea76 0f3e a2b0 093c 3733 c83d
000000e0: 9ce2 ac3d 5fdb c53d 1481 8cbb e2d1 323c
000000f0: 6608 d8bd c121 bfbd e933 37bc fb69 10bd
-0.1424725 0.02241639 -0.0019735848 0.121603005 0.091058135 0.12679498 -0.070649184 0.10498573
0.06333374 0.008107651 -0.1226697 0.114863575 -0.104058556 0.05965758 0.09323544 0.014690638
0.19156276 0.07578646 0.06777508 0.128674 -0.1349904 -0.038485516 -0.06889838 -0.02928641
-0.079417914 0.030834302 0.034933224 -0.072671846 -0.03889531 0.091882244 -0.20536897 -0.033670295
-0.2080452 0.06723213 0.032147285 -0.071509324 -0.043629214 0.08178424 0.10375073 -0.0028902178
0.011721429 -0.012815539 -0.07407399 0.048477795 0.019623285 -0.036738086 -0.0045621367 0.055477954
-0.12112739 0.101176955 0.07944008 0.1352092 0.056370113 0.14010206 0.008403929 0.097753935
0.0844166 0.09660982 -0.0042878482 0.010914298 -0.10548477 -0.0933261 -0.01118181 -0.03525732

rnn.bias_hh_l0 f4 [64]
00000000: 84de 9c3d 59f3 bebd 2b3b 8d3d b286 123b
00000010: 8993 ce3d 1b64 e83d 2b95 8c3d e03c 623d
00000020: ef51 92bd cec3 41bd 5e85 00be 6a00 35bd
00000030: d8c2 0c3c f28b febc f0bd a7bd 6718 ed3c
00000040: 8591 293e a751 06bd 2d35 943d 7d9c d63d
00000050: 8681 f7bd 7946 0abd f3c5 ea3d bd8b 94bd
00000060: 24c6 863d 6c23 87bd 800f 39bd b01e d73d
00000070: 84c8 58bc c971 95bd a42f 58be f2bf 493c
00000080: bfee 82be 8a3d 9c3d 2713 49bc bbf1 c1bc
00000090: bdf0 d23c 508c 89bd fc34 953b a7fc 7bbd
000000a0: efec 38be 8ef9 be3d 1f3b 483d ba66 fb3d
000000b0: b395 a23d 61de 033e 40d3 b4bd 4335 29bd
000000c0: 261e 70bc 9372 8d3d e904 a33d 6a2e f03d
000000d0: 4c27 803d 19fb a2bc cdc1 a0bc a3f4 3d3d
000000e0: d1e2 b1bd 5101 5b3c bc7d bcbd 842e 083e
000000f0: 0674 9a3c 594f 01bd c394 b53d 551b 633d
0.07659629 -0.09323759 0.06896051 0.0022358117 0.10086734 0.113472186 0.06864389 0.055233836
-0.07144534 -0.047305875 -0.12550876 -0.044189848 0.008591376 -0.03107259 -0.081905246 0.0289423
0.16559418 -0.032792713 0.07236705 0.104790665 -0.120852515 -0.033758614 0.11463537 -0.072532155
0.06580761 -0.06598553 -0.045180798 0.105039 -0.0132314 -0.072970934 -0.21111923 0.01231383
-0.25572774 0.07628925 -0.012272633 -0.023674836 0.025749559 -0.067162156 0.0045534354 -0.061520245
-0.18059133 0.093249425 0.048884507 0.12275453 0.07938709 0.128778 -0.08829355 -0.04131056
-0.014655625 0.06906619 0.07959921 0.11727603 0.06257495 -0.019895123 -0.019623661 0.046375882
-0.0868584 0.013367013 -0.092036694 0.13298994 0.018854152 -0.031569812 0.08866265 0.055445988

h2o.weight f4 [2, 64]
00000000: 8536 56be e2f4 a53e 813a 69bb 2186 2dbe
00000010: 3b3a a13d e4e3 bcbd b8e7 993e a1ae e3bd
00000020: 93bc b43d 1cf5 debb 48ac 98bd 1011 32bd
00000030: bc71 7cbd 0ed3 6d3d db39 173e 93c0 9bbe
00000040: 1682 b4bd c09c 11bf 7c42 3ebd fe78 1abc
00000050: c328 75bd 227d d43d 8b64 883e 631c cebe
00000060: c6bd a4bd e5ab 463d 0915 673d c4e3 b2bc
00000070: 0ab0 0a3e 8520 b5bd f3fc d13e b319 cc3e
00000080: ba5a 63bd ddff be3e bef7 483e 623e 81be
00000090: c5ed 8cbc b3b1 4fbd 315a 783e 3537 363e
000000a0: 86b7 e9be 0696 1c3e eaf1 993e c1da 7d3e
000000b0: 9d1e 0abe a6d5 323e facc ce3e 5617 943e
000000c0: ccf9 a1bd a2b3 d7be 2e52 543e 3a28 c9be
000000d0: 8aed 46be bbe2 9d3e 793c 55be 23cf 18be
000000e0: b0c4 0bbe 592f 613e d4ba 293a 2150 c6be
000000f0: 086a 2fbd fb25 bebd 5b53 153e 584c 103e
00000100: 44c0 993d 8e51 70be 58ac a93d 9f39 ccbc
00000110: f2ba 143e 4296 783e 1070 6bbe e710 1d3d
00000120: ce9e 0abe cfbc 343d ca50 d13d c5a6 763e
00000130: ab2b 54bc f84a 85bd c86d 2ebe 8c97 c73e
00000140: cceb b33d 06a6 203f c196 b23a 65e0 e23c
00000150: 8ffc 8b3d 82ea 6cbe 01a0 34be 2bd2 c13e
00000160: 7919 d73d 3bb2 57be fa94 69bd 18bd 7d3d
00000170: 7845 04be 6b92 8f3e 0cfe bdbe bf0c c6be
00000180: 0403 8dbd ff88 57be 6ac3 78bd 2ec1 b93e
00000190: 005a 09bd 80e5 dc3a 0da9 ddbd 5389 ddbd
000001a0: 3701 a13e 3c8f 06be 61eb 12be 024e 35be
000001b0: 6da8 83bc a4ec bbbd 4ce3 c7be 860c 82be
000001c0: e834 55bd 8588 c53e 2fc4 0fbe 98f6 a93e
000001d0: 192e 8b3e c6bd 80be f645 613e 7d60 cd3d
000001e0: 88c1 b43d d87e 32bd f587 77bd e069 653e
000001f0: bc0e 773e dfa5 1b3e 89db 2f3d 8f0a 9ebd
-0.20919235 0.32413393 -0.003558785 -0.16945697 0.07872435 -0.09223154 0.300596 -0.11117292
0.0882503 -0.0068041217 -0.07454735 -0.043473303 -0.061631903 0.058062606 0.14768164 -0.3042036
-0.088138744 -0.56879807 -0.046450123 -0.009428261 -0.059853327 0.1037543 0.26639208 -0.40256032
-0.08044009 0.048503775 0.056416545 -0.021837123 0.13543716 -0.08844093 0.41013297 0.39863357
-0.055506445 0.37304583 0.19625756 -0.25242907 -0.017203221 -0.050706577 0.24253155 0.17794497
-0.4564783 0.15291604 0.30067378 0.24790479 -0.1348824 0.17464313 0.4039076 0.28924054
-0.07908973 -0.42129236 0.20734474 -0.39288503 -0.19426551 0.30837044 -0.2082385 -0.14922766
-0.13649249 0.21990718 0.0006474678 -0.38733009 -0.04282573 -0.09284588 0.14582579 0.14091623
0.07507375 -0.2346861 0.08284825 -0.02492982 0.14524439 0.24276069 -0.22991967 0.038346197
-0.13537142 0.044125374 0.102204874 0.24087055 -0.012949864 -0.0650844 -0.17034066 0.3898281
0.08785209 0.6275333 0.001362525 0.02769489 0.06835281 -0.23136333 -0.17639162 0.37855658
0.105029054 -0.21064083 -0.05702684 0.061947912 -0.12917125 0.28041396 -0.37107885 -0.386816
-0.06885341 -0.21048354 -0.060733236 0.36280197 -0.033533096 0.0016853064 -0.108232595 -0.10817208
0.3144624 -0.13140577 -0.14347602 -0.17705539 -0.016071523 -0.09175995 -0.390406 -0.2540018
-0.05205241 0.3858072 -0.14039682 0.3319595 0.27183607 -0.25144786 0.21999344 0.10028169
0.08825976 -0.043578 -0.060432393 0.2240367 0.24126714 0.15199994 0.042933974 -0.07716858

h2o.bias f4 [2]
00000000: d341 7a3d 2899 d8bc
0.06109793 -0.026440218
