utils/rnn_gen_model.pth (torch, 153442 bytes, 6 tensors)

i2h.weight f4 [128, 174]
0	0x3d8eae1f	0.06966805
1	0x3df78a27	0.12086897
2	0x3c0a53de	0.008442847
3	0xbd1dc576	-0.03851839
4	0x3e4eb54a	0.20186344
5	0x3c3a7f76	0.011382928
6	0xbdad11d1	-0.08450664
7	0xbdfa65f7	-0.122264795
8	0xbdeb2bb6	-0.114829466
9	0x3e7cde1f	0.24694107
10	0xbe4d2a3a	-0.2003564
11	0xbdeccb4f	-0.115622155
12	0x3d530241	0.05151582
13	0xbdc4c2a2	-0.09607436
14	0xbdcc1b20	-0.09966111
15	0xbdfba84e	-0.12287961
16	0xbd8566b4	-0.0651373
17	0x3ec976a6	0.39348334
18	0xbebca7ed	-0.36846867
19	0x3d25668f	0.04038101
20	0x3e305e8a	0.17223564
21	0x3ebd0f60	0.36925793
22	0xbcc407af	-0.023929445
23	0x3e3fb86f	0.187227
24	0x3dbbb23a	0.091648534
25	0x3e27be3c	0.16381162
26	0x3c3cd935	0.011526396
27	0xbd99c108	-0.07507521
28	0xbe364c9f	-0.17802666
29	0x3d6ba9a1	0.057534818
30	0x3d00aaef	0.031413015
31	0xbd85f799	-0.06541366
32	0x3d8846a0	0.06654096
33	0x3d176f8b	0.03697161
34	0x3d4f8bdf	0.0506705
35	0xbd87eb2b	-0.066366516
36	0x3d9568b5	0.07295362
37	0xbd4edb3a	-0.05050204
38	0xbb71098b	-0.003677937
39	0xbc18fef2	-0.009338127
40	0xbd415c10	-0.04720694
41	0x3d12f54c	0.035878465
42	0x3d9984e5	0.07496051
43	0xbb0b6f81	-0.0021276178
44	0xbd47cdd3	-0.048780274
45	0xbd56c74a	-0.05243615
46	0x3d898098	0.067139804
47	0x3daeeb89	0.085410185
48	0xbcef862b	-0.029238781
49	0xbd37d93d	-0.04488491
50	0xbca1ad22	-0.019735876
51	0xbd70a042	-0.058746584
52	0xbdcd9cbf	-0.100396626
53	0xbdbb74dd	-0.09153149
54	0x3c88480f	0.016635923
55	0x3dab7500	0.08371925
56	0xbe145388	-0.1448499
57	0xbdb7e245	-0.08978704
58	0xbc819c77	-0.015821679
59	0x3c9d1312	0.019174132
60	0x3c0233e9	0.007946947
61	0xbd0c8883	-0.034309875
62	0x3dacd647	0.08439308
63	0x3d46ebc2	0.04856468
64	0x3d1cb5e8	0.038259417
65	0xbd0e66f7	-0.034766164
66	0xbde262c9	-0.11053998
67	0xbdaf33a9	-0.08554775
68	0xbdcfc1a0	-0.10144353
69	0xbd568f83	-0.052382957
70	0x3d0bcee5	0.034132857
71	0xbd92906e	-0.07156454
72	0xbded7b33	-0.11595764
73	0xbddaa096	-0.106751606
74	0x3d020e20	0.031751752
75	0x3d1287e0	0.03577411
76	0xbd0e2cf1	-0.03471083
77	0xbdf0dcc8	-0.11760861
78	0x3dae8127	0.085207276
79	0x3db02e5f	0.086025946
80	0x3d5717a5	0.052512784
81	0xbcbd968f	-0.023143081
82	0x3cb4dd1e	0.022078093
83	0x3ce322e4	0.027726598
84	0xbc76c14b	-0.015060733
85	0x3d63a54f	0.055577572
86	0x3c6aadc9	0.01432366
87	0xbcf9c5d8	-0.030489847
88	0x3aeade2d	0.0017918997
89	0xbda7ba10	-0.081897855
90	0x3d31b96e	0.04338973
91	0x3da8a5e4	0.08234766
92	0x3c9a3a9c	0.018826775
93	0x3a82e6aa	0.0009986956
94	0x3d10b068	0.035324484
95	0x3dd55347	0.104162745
96	0x3d46fdb1	0.048581783
97	0xbd7da99c	-0.06192933
98	0xbd80e3bf	-0.06293439
99	0x3cf49c56	0.029859703
100	0xbd9de435	-0.07709543
101	0xbcffb860	-0.031215847
102	0x3dafbc5a	0.08580847
103	0xbc057175	-0.008144726
104	0x3d157e63	0.036497485
105	0xbc6ee840	-0.01458174
106	0xbc908843	-0.0176431
107	0x3d70e063	0.05880774
108	0x3de49418	0.11161059
109	0xbdef1347	-0.11673599
110	0xbce1f426	-0.02758224
111	0xbdc30832	-0.095230475
112	0x3d4cf178	0.05003497
113	0xba5ff438	-0.00085431663
114	0x3dd0cbac	0.10195097
115	0xbdf8f1ac	-0.1215547
116	0xbd3b7bdc	-0.04577242
117	0x3c777efb	0.015105958
118	0xbd855fc9	-0.0651241
119	0xbdf4e020	-0.11956811
120	0x3cc8f043	0.024528628
121	0xbcb8a20c	-0.022538207
122	0x3cbad0ab	0.022804579
123	0xbd4ac9dd	-0.049508918
124	0x3db9d0d3	0.09073033
125	0x3dae5e5b	0.085140906
126	0x3baed56e	0.0053355014
127	0x3db39bbd	0.08769939
128	0xbbc6efc0	-0.006071061
129	0xbddea725	-0.10871724
130	0x3d2d47d1	0.042304818
131	0xbb8cd079	-0.004297313
132	0x3d70fd59	0.05883536
133	0x3dfbdfa6	0.12298517
134	0x3db8880c	0.09010324
135	0xbd5df550	-0.054189026
136	0x3e09b4b6	0.13447842
137	0xbcf9ec67	-0.030508233
138	0xbdb39eea	-0.08770545
139	0x3d987e11	0.0744592
140	0xbddd4a4f	-0.10805189
141	0xbd49f048	-0.049301416
142	0xbd886a68	-0.066609204
143	0xbd34ccc9	-0.04414061
144	0xbda029e1	-0.07820488
145	0x3c2fac29	0.0107221985
146	0x3d2b066e	0.04175418
147	0xbd80284d	-0.06257687
148	0xbda7f9d5	-0.082019486
149	0xbd5e2669	-0.05423585
150	0xbdf32bc0	-0.11873579
151	0x3c876c8b	0.01653125
152	0x3d8b653f	0.068064205
153	0xbdbcdd84	-0.09221938
154	0xbdb7a4be	-0.08966969
155	0xbd54ba02	-0.051935203
156	0x3d86e3ed	0.06586442
157	0x3d528db0	0.051404655
158	0x3daa6053	0.08319154
159	0x3d859ce4	0.06524065
160	0xbd35278e	-0.044227175
161	0x3d124324	0.03570856
162	0x3d45a8d4	0.04825671
163	0xbd8f9e84	-0.07012656
164	0xbcbadd68	-0.022810653
165	0xbc2c9551	-0.010533647
166	0xbd9467ce	-0.07246362
167	0x3d8c9ae1	0.06865478
168	0x3c2e3e08	0.010634907
169	0xbd5cb15a	-0.053880073
170	0xbcdbf41a	-0.026849795
171	0x3cc1fe0d	0.023680711
172	0x3db9da37	0.09074824
173	0xbd5e615d	-0.05429207
174	0xbe121b5c	-0.1426825
175	0xbd55ea0a	-0.05222515
176	0x3ea59ba4	0.32345307
177	0xbc9bc791	-0.01901606
178	0x3d6dc3fd	0.058048237
179	0xbc9bb7cd	-0.019008541
180	0x3ee0cfe1	0.439086
181	0x3ddf18c8	0.108933985
182	0xbd0db861	-0.034599666
183	0xbe6fd07f	-0.23419379
184	0x3e36e26b	0.17859809
185	0xbe872253	-0.26393375
186	0xbb0ec216	-0.0021783165
187	0x3d34f580	0.04417944
188	0xbe798401	-0.24366762
189	0xbecbeef2	-0.39830738
190	0x3ea84768	0.3286698
191	0x3cfe27a2	0.031024758
192	0xbe38c554	-0.18044025
193	0xbddb8876	-0.10719387
194	0xbea5b39b	-0.3236359
195	0x3d2e643c	0.04257606
196	0x3e2791b0	0.16364169
197	0xbe71ff44	-0.23632532
198	0xbdd4b344	-0.10385755
199	0xbd318826	-0.043342732
200	0xbaa870c1	-0.0012850986
201	0xbdf73b46	-0.120718524
202	0x3e34c9ec	0.17655152
203	0x3d0cd3aa	0.034381546
204	0x3e690eae	0.22759506
205	0x3bbdff58	0.0057982616
206	0xbcec2ffd	-0.028831476
207	0xbd67e01d	-0.056610215
208	0x3d162f22	0.036666043
209	0xbd95a1d0	-0.07306254
210	0x3d6ad5a9	0.05733267
211	0x3cbe5f6f	0.023238866
212	0xbc3e152d	-0.011601728
213	0xbd8cb890	-0.0687114
214	0x3d226aa1	0.03965247
215	0xbd82163e	-0.063518986
216	0xbc91004f	-0.017700342
217	0x3d7634f5	0.060109098
218	0xbd0ef3e8	-0.034900576
219	0x3c0f49b6	0.008745601
220	0x3d7d1f3d	0.06179737
221	0x3dc6743f	0.09690141
222	0xbd270d26	-0.040784024
223	0xbd563c7a	-0.05230377
224	0x3d0457d7	0.032310333
225	0xbdaccdef	-0.08437716
226	0x3c30c628	0.010789432
227	0x3cee9615	0.029124299
228	0x3db84d76	0.089991495
229	0xbceaa9b6	-0.028645378
230	0x3d9e1142	0.077181354
231	0xbd2b3695	-0.0418001
232	0xbd0c82d5	-0.03430446
233	0x3d3aabe4	0.045574084
234	0xbdd1bdad	-0.10241256
235	0xbd0c878e	-0.034308963
236	0xbc59edf2	-0.0133013595
237	0xbd6d37c5	-0.057914514
238	0xbdfda20d	-0.12384424
239	0xbd1c42f2	-0.03814978
240	0xbdca4a3a	-0.09877439
241	0xbd103f9d	-0.035216916
242	0x3cb6529d	0.02225619
243	0xba8040df	-0.0009784958
244	0x3ca87fc9	0.020568745
245	0x3d1023ef	0.03519052
246	0x3dcba819	0.099441715
247	0x3d966555	0.07343546
248	0x3c634a83	0.013872745
249	0xbd74774e	-0.05968409
250	0x3d9d42d3	0.07678761
251	0x3d1cd547	0.038289335
252	0x3da238a1	0.07920957
253	0xbd679ede	-0.056547992
254	0xbde42ef1	-0.11141766
255	0xbd6cc70b	-0.05780701

i2h.bias f4 [128]
0	0x3e9a8b9b	0.30184636
1	0xbe86d6f6	-0.26335877
2	0x3e288f8b	0.16461007
3	0x3dd30fcf	0.103057496
4	0x3e292c6a	0.16520849
5	0xbd6d9f59	-0.058013294
6	0xbe500ef3	-0.20318203
7	0xbcd4634e	-0.025926258
8	0x3de32b0b	0.11092194
9	0xbc6e9944	-0.014562909
10	0x3e14bbaf	0.1452472
11	0x3e2b94bd	0.16755958
12	0xbe147870	-0.14499068
13	0xbd8eaace	-0.06966172
14	0x3b6fff52	0.0036620689
15	0xbc28cd91	-0.010302917
16	0xbd0b7366	-0.0340456
17	0xbd9ec770	-0.077528834
18	0xbe35b05a	-0.17743054
19	0x3e3e8e7c	0.18609041
20	0x3ddff10e	0.109346494
21	0x3e58b4c3	0.21162705
22	0xbe02b43e	-0.1276407
23	0x3e290371	0.16505219
24	0x3d8044ba	0.062631086
25	0x3c40bd11	0.011763827
26	0x3e15378c	0.1457197
27	0xbe940fff	-0.28918454
28	0x3d7729f3	0.06034274
29	0x3ec4c1ee	0.38429207
30	0xbd9c92d9	-0.076451965
31	0x3de9060e	0.11378108
32	0xbd47fce0	-0.048825145
33	0x3d0ece76	0.034864865
34	0x3ec61956	0.38691205
35	0x3d9851f1	0.07437504
36	0xbe29509a	-0.16534653
37	0xbd5a2c61	-0.05326498
38	0xbe71f914	-0.23630172
39	0xbcc823fe	-0.024431225
40	0xbd880c21	-0.066429384
41	0x3e5f9361	0.21833564
42	0xbc0f8ac8	-0.008761115
43	0x3e97634a	0.2956794
44	0xbd82027f	-0.06348132
45	0xbe1a7c99	-0.15086593
46	0x3c83ba92	0.016080175
47	0xbe893a6e	-0.2680239
48	0x3e0686d2	0.13137367
49	0xbd97004a	-0.07373102
50	0x3e0d8300	0.13819504
51	0xbe3e94dc	-0.18611473
52	0x3dad8f99	0.08474655
53	0x3e5c5a9e	0.21518943
54	0x3e5e2fb3	0.21697883
55	0xbdf27350	-0.118384
56	0x3dbb1a93	0.09135928
57	0xbe5d54d2	-0.21614388
58	0x3e259613	0.1617053
59	0x3ca098d6	0.019604128
60	0xbe55e96e	-0.20889828
61	0x3c04aa92	0.008097308
62	0x3e6004c0	0.21876812
63	0xbd211ca4	-0.039333954
64	0xbe5539ca	-0.20822826
65	0x3e2a9602	0.16658786
66	0x3da650ed	0.08120904
67	0xbe3a4a38	-0.18192375
68	0x3d675ea8	0.056486756
69	0xbd9250fe	-0.07144354
70	0x3e0919fb	0.13388817
71	0x3e212715	0.15737565
72	0x3b6e7f82	0.0036391919
73	0x3e3bc031	0.18335034
74	0x3e6333c0	0.2218771
75	0xbdaa5818	-0.08317584
76	0x3ba6a4f1	0.0050855805
77	0x3e7f5c12	0.24937466
78	0x3cdf0979	0.027226197
79	0x3d73e223	0.059541833
80	0xbe16d013	-0.14727812
81	0x3d15f39b	0.036609273
82	0xbdca9404	-0.09891513
83	0x3e2983ea	0.16554227
84	0xbdf4a3a3	-0.11945274
85	0x3d4bebf4	0.04978557
86	0xbe6778ce	-0.22604677
87	0xbd3470b9	-0.044052813
88	0xbd86f812	-0.065902844
89	0xbdab5568	-0.08365899
90	0xbd1b8992	-0.037972994
91	0x3d8ad28d	0.067784406
92	0x3e87662f	0.26445147
93	0x3dc89957	0.09794872
94	0x3e7e6b18	0.2484554
95	0xbe09161c	-0.1338734
96	0x3c21495e	0.009844152
97	0x3cbfdbbc	0.023420207
98	0x3ac1cb03	0.0014785234
99	0x3c30a56e	0.010781629
100	0xbde45049	-0.11148126
101	0xbe37a2e8	-0.17933238
102	0x3da707c2	0.081557766
103	0x3d9f40ee	0.07776056
104	0x3e953090	0.29138613
105	0x3e73c2c2	0.23804763
106	0xbe7c1b3a	-0.24619761
107	0x3dc1f604	0.09470752
108	0xbb65601a	-0.0034999908
109	0xbc1441bb	-0.0090488745
110	0x3e474b72	0.19462374
111	0x3d69d5e9	0.057088766
112	0xbba76cf9	-0.005109426
113	0xbe806708	-0.25078607
114	0xbc574861	-0.013139815
115	0xbe25a2d3	-0.16175394
116	0x3e28e5a8	0.16493857
117	0xbd8f3a72	-0.069935694
118	0xbe201d98	-0.15636289
119	0xbd004594	-0.031316355
120	0x3e8b1eb3	0.2717186
121	0xbe3cb1f5	-0.1842726
122	0xbd37bbbd	-0.044856776
123	0x3df5b246	0.119968936
124	0x3e12c446	0.14332685
125	0x3d810cb6	0.063012525
126	0x3db40c1e	0.08791374
127	0xbdf541a5	-0.11975411

i2o.weight f4 [44, 174]
0	0x3e078b8d	0.13236828
1	0x3d9f3b22	0.077749506
2	0xbee59233	-0.44838104
3	0x3d882f51	0.0664965
4	0x3d260db0	0.040540397
5	0x3e2eaf04	0.1705895
6	0xbe59e1da	-0.21277562
7	0x3e3f8e1f	0.18706559
8	0x3e087a76	0.13327965
9	0xbd3ba9aa	-0.0458161
10	0xbe753058	-0.23944223
11	0x3e179a99	0.14805068
12	0x3de9534d	0.113928415
13	0x3e666e93	0.22503118
14	0x3e032c0a	0.12809768
15	0xbe2ac918	-0.16678274
16	0xbe6303f8	-0.22169483
17	0x3e4fd5f4	0.2029646
18	0x3c677d87	0.014129049
19	0x3c801ac1	0.015637757
20	0x3e98bb6a	0.29830486
21	0x3d991c60	0.07476115
22	0xbe07b834	-0.13253862
23	0x3e539dca	0.2066566
24	0x3d48bac5	0.049006242
25	0x3e066bc5	0.13127048
26	0xbe1299ad	-0.14316435
27	0x3e4536ec	0.19259232
28	0xbe820fed	-0.25402775
29	0xbd34d32e	-0.04414671
30	0xbe2b9212	-0.1675494
31	0xbd97a434	-0.07404366
32	0xbd94cdbc	-0.07265803
33	0xbd78187b	-0.06057022
34	0x3c4d526d	0.012531859
35	0x3c869118	0.016426608
36	0x3ce7bff5	0.028289774
37	0xbd1d4a2e	-0.03840082
38	0xbacead2e	-0.0015768164
39	0x3d859ca4	0.065240175
40	0x3d6aa2cd	0.057284165
41	0x3d3891af	0.04506081
42	0x3d8dec06	0.069297835
43	0x3d1ba462	0.037998565
44	0xbcb2b69d	-0.021815592
45	0xbd994627	-0.074840836
46	0x3d272f86	0.040816806
47	0xbbcf6aca	-0.006329869
48	0xbbb04dc9	-0.0053803665
49	0xbd978b48	-0.07399613
50	0x3d619eff	0.05508327
51	0xbdf4328b	-0.11923703
52	0x3d128737	0.035773482
53	0x3b1a9eb5	0.0023593132
54	0xbc80ab0e	-0.015706565
55	0x3d6e9f1c	0.058257207
56	0x3d230931	0.039803687
57	0xbcf6b5a7	-0.030115915
58	0xbd53f74c	-0.051749513
59	0x3d9fbca7	0.077996545
60	0xbc5a6e83	-0.013332012
61	0x3dd6a8ce	0.10481416
62	0x3c8f9ee4	0.01753182
63	0xbd51d62e	-0.05122965
64	0x3d028d11	0.031872813
65	0x3da459e7	0.0802496
66	0xbd63dbec	-0.055629656
67	0x3cc3eaa5	0.023915598
68	0xbd45c9f7	-0.04828831
69	0x3bf723d3	0.0075421124
70	0xbd71a62a	-0.058996357
71	0x3ce334d9	0.02773516
72	0x3bb43c00	0.0055003166
73	0xbd821131	-0.06350935
74	0xbb265d4b	-0.0025385197
75	0x3d1aec7b	0.03782318
76	0x3d0bf7ef	0.034171995
77	0xbc0c8db4	-0.0085787065
78	0x3da8a2e8	0.08234197
79	0x3c6edcad	0.01457898
80	0xbe096a1a	-0.13419381
81	0xbd597c67	-0.053097155
82	0x3d89d1bd	0.067294575
83	0xbcc4faac	-0.02404531
84	0x3d5f431e	0.054507367
85	0x3dae30d8	0.0850541
86	0x3d46a83c	0.048500285
87	0x3a6ac46e	0.0008955662
88	0xbda874bc	-0.0822539
89	0xbd3b868c	-0.04578261
90	0xbd0d12bb	-0.03444169
91	0xbd6a8cdd	-0.057263244
92	0xbd088a83	-0.03333522
93	0x3dbfb772	0.09361161
94	0x3d876671	0.06611336
95	0x3ccfebf3	0.025381064
96	0x3d0ae957	0.033913936
97	0x3c839a3e	0.01606476
98	0x3d114e6d	0.035475183
99	0x39cb7d25	0.00038812417
100	0x3dbb3549	0.09141023
101	0xbd1bf9ae	-0.03807991
102	0x3df105be	0.11768673
103	0xbcd0bf21	-0.025481762
104	0xbc7d12cb	-0.015446375
105	0xbd187591	-0.037221495
106	0xbd92ddd2	-0.07171215
107	0x3d551b98	0.05202827
108	0x3ca66d4d	0.02031579
109	0x3c337d18	0.010955118
110	0xbd665bb3	-0.056239795
111	0x3cf13108	0.029442325
112	0xbd6662c5	-0.056246538
113	0x3d277d79	0.040891144
114	0x3d8f1d70	0.06988037
115	0xbc21539b	-0.009846593
116	0x3dae27ba	0.08503671
117	0xbc84c1af	-0.016205637
118	0xbd3b3916	-0.04570874
119	0xbc8dd0e3	-0.017311519
120	0x3c3aed43	0.011409107
121	0x3c23deb0	0.010001823
122	0x3ca678a9	0.020321207
123	0xbc0239c8	-0.007948346
124	0x3db60c5a	0.088890746
125	0x3d266852	0.04062683
126	0xbc7bd36e	-0.015370233
127	0x3de4f1de	0.11178945
128	0x3d8a3038	0.06747478
129	0x3d4748d5	0.048653442
130	0x3da1dd68	0.07903558
131	0xbc45cbed	-0.0120725455
132	0xbb6ea912	-0.0036416692
133	0xbd21550c	-0.039387748
134	0xbc1c0e47	-0.009524888
135	0x3be4b9f7	0.0069801765
136	0xbc1a8dc2	-0.009433212
137	0xbd5bfc26	-0.053707264
138	0xbca98eb9	-0.020697938
139	0x3d5fff3d	0.054686774
140	0xbca903e3	-0.020631736
141	0x3d4a0abf	0.049326655
142	0x3d11bd18	0.035580724
143	0x3d4accc5	0.04951169
144	0xbd46c8e1	-0.048531417
145	0xbd39bc03	-0.045345318
146	0x3dc89fed	0.097961284
147	0x3dacef7d	0.08444116
148	0xbcabfa5a	-0.0209934
149	0xbd607244	-0.054796472
150	0x3ca79c7e	0.020460363
151	0x3ddba9b1	0.107257254
152	0x3d2c64be	0.042088263
153	0x3b6ff16a	0.00366124
154	0x3cf6886b	0.030094346
155	0x3db03bb4	0.086051375
156	0xbd7b3a27	-0.061334755
157	0x3c4bcc40	0.012438834
158	0x3da828e1	0.08210922
159	0xb9e13967	-0.00042958112
160	0xbd98245b	-0.07428809
161	0xbd77dc21	-0.060512666
162	0xbc4ecc1c	-0.012621906
163	0xbd4b3e42	-0.04961992
164	0x3d098bb3	0.033580493
165	0x3d36f0bb	0.044663172
166	0xbdc8474c	-0.09779224
167	0xbd8c0eb0	-0.06838739
168	0xbc8ec7eb	-0.017429313
169	0xbd426960	-0.047463775
170	0x3d8b4d56	0.0680186
171	0x3dbdc1a2	0.09265448
172	0xbd2e57ae	-0.042564087
173	0xbb358f09	-0.0027703664
174	0xbdb7f6a7	-0.08982592
175	0xbdefc1e5	-0.11706904
176	0xbe9e7e41	-0.309557
177	0x3ce87201	0.028374674
178	0xbd8c4ed2	-0.06850971
179	0xbd9524c2	-0.072824016
180	0x3e548a9c	0.20756
181	0xbd9fb8dd	-0.07798932
182	0x3c34ac56	0.011027416
183	0xbda59a00	-0.08086014
184	0xbc4e7579	-0.01260125
185	0x3d0f3a2e	0.034967594
186	0x3c565cde	0.013083665
187	0xbc615a10	-0.013754383
188	0xbdaf3e5d	-0.08556817
189	0x3e18acb5	0.14909633
190	0xbbd25674	-0.0064189974
191	0xbb64819f	-0.00348673
192	0x3ca3085c	0.019901447
193	0xbd9e9b8d	-0.07744513
194	0x3e0c49d3	0.13700037
195	0xbe3427c2	-0.17593291
196	0xbe2594ee	-0.16170093
197	0xbe459f10	-0.19298959
198	0xbd05cb5d	-0.032664645
199	0x3d61bafa	0.055109955
200	0x3e5b947e	0.21443364
201	0x3e0060ee	0.12536976
202	0xbdbf0ea8	-0.09328967
203	0x3cec5081	0.028846981
204	0xbe27e409	-0.16395582
205	0x3c9daab7	0.019246442
206	0xbd10c4cf	-0.03534394
207	0x3c7f7568	0.015591957
208	0xbd893099	-0.066987224
209	0xbd2c1404	-0.042011276
210	0xbd1232a6	-0.035692833
211	0xbcd432c0	-0.025903106
212	0x3bf304f0	0.00741636
213	0xbc74f808	-0.014951713
214	0x3d48c063	0.0490116
215	0x3cf09e1a	0.029372264
216	0x3d8bea1f	0.068317644
217	0xbd51341d	-0.05107509
218	0xbc8cd7b6	-0.017192703
219	0x3d1eb82c	0.03874986
220	0x3d98fc9c	0.074700564
221	0xbc96581b	-0.018352559
222	0xbdb38380	-0.08765316
223	0xbd326958	-0.043557495
224	0x3d8788cb	0.06617888
225	0xbd7259d1	-0.059167687
226	0x3d264628	0.04059425
227	0x3d844c00	0.06459808
228	0xbd9b2440	-0.075752735
229	0x3c250e8c	0.010074269
230	0x3d1b7d27	0.03796115
231	0xbe00e9fa	-0.12589255
232	0x3da96237	0.08270686
233	0x3d78e270	0.060762823
234	0xbb7e3402	-0.0038788323
235	0x3da8a6bc	0.08234927
236	0x3dcac49d	0.09900782
237	0x3d53ddae	0.051725082
238	0xbd5e1e4c	-0.054228112
239	0x3c4357da	0.011922801
240	0xbd49c060	-0.04925573
241	0xbccc6bbd	-0.024953717
242	0x3d9f1fcf	0.07769739
243	0xbc9c6cc9	-0.019094842
244	0xbda68110	-0.081300855
245	0xbd982aac	-0.07430014
246	0xbc55d751	-0.013051824
247	0x3c0f75ca	0.00875611
248	0xbd405311	-0.04695422
249	0xbd48473e	-0.048896067
250	0xbc4b34b0	-0.012402698
251	0x3b91471e	0.0044335267
252	0x3d9af539	0.07566304
253	0x3c12bb7a	0.008955831
254	0xbde642fa	-0.112432435
255	0xbb0b5a0d	-0.0021263391

i2o.bias f4 [44]
0	0x3e3a6487	0.1820241
1	0xbe3ea22c	-0.18616551
2	0x3d1ba6b5	0.03800078
3	0x3e9da772	0.30791813
4	0x3e719246	0.23590955
5	0x3e1fba82	0.15598491
6	0x3e82e791	0.25567296
7	0xbd82f182	-0.0639372
8	0xbead859b	-0.33890995
9	0xbecefde8	-0.4042809
10	0xbe9d2ec3	-0.3069974
11	0xbe852370	-0.260036
12	0xbe3dfb0c	-0.18552798
13	0x3c2d85f7	0.010591022
14	0xbc7bff06	-0.015380627
15	0x3d758f58	0.059951156
16	0xbda57494	-0.08078876
17	0x3e21b890	0.15793061
18	0xbf0dbfa7	-0.55370563
19	0x3e82d182	0.25550467
20	0x3e479d77	0.19493662
21	0x3be26a6e	0.00690966
22	0xbe8527f4	-0.26007044
23	0xbd87c79e	-0.06629871
24	0xbe5f69d0	-0.21817708
25	0xbf00f778	-0.5037761
26	0xba2a7b61	-0.000650337
27	0xbf0e082b	-0.55481213
28	0x3df4a172	0.11944856
29	0x3e335567	0.17513047
30	0xbe312701	-0.17300035
31	0x3e7b9bfc	0.24571222
32	0x3e92125e	0.28529638
33	0x3d00eb20	0.031474233
34	0x3f13b505	0.5769809
35	0x3e01d906	0.12680444
36	0xbe4fb6ba	-0.20284548
37	0x3dd13ea8	0.10217029
38	0x3ea4aa83	0.3216134
39	0xbe8ac867	-0.2710602
40	0x3d8ce3a2	0.06879355
41	0xbd24c8c8	-0.040230542
42	0xbe4720cc	-0.19446105
43	0x3bcdec64	0.0062842835

o2o.weight f4 [44, 172]
0	0x3dd6a4c6	0.10480647
1	0xbe9c8f5b	-0.30578122
2	0xbd8b40ba	-0.06799455
3	0x3d276938	0.04087183
4	0x3e257eda	0.16161671
5	0x3c0ca535	0.00858431
6	0xbdd8263a	-0.10554166
7	0xbe129848	-0.14315903
8	0x3d65151e	0.055928342
9	0x3e18dd39	0.1492814
10	0x3e75166e	0.23934337
11	0x3d0503fd	0.032474507
12	0xbde641d4	-0.112430245
13	0xbd7e0141	-0.062012915
14	0x3e2ef180	0.17084312
15	0x3d0ea974	0.03482957
16	0xbdac88da	-0.0842454
17	0xbd9e9938	-0.07744068
18	0x3cd45cd3	0.025923168
19	0x3e2a8e75	0.16655906
20	0x3c939cd3	0.018019116
21	0x3e64d2ae	0.22345993
22	0xbe6d0df6	-0.23149857
23	0x3e302514	0.17201644
24	0xbdac5635	-0.0841488
25	0x3d442a9c	0.047892198
26	0x3da8e7a4	0.08247307
27	0xbcd10b10	-0.02551797
28	0xbe03b71d	-0.12862821
29	0xbd91927c	-0.07108018
30	0xbd5b8df0	-0.05360216
31	0xbeb589e7	-0.35456774
32	0x3bf2f4b7	0.007414426
33	0x3e4d6870	0.20059371
34	0x3e811266	0.2520935
35	0xbdf66f2b	-0.12032922
36	0xbd98e6b3	-0.074658774
37	0x3df6265c	0.12019035
38	0xbdb3c030	-0.08776891
39	0xbe601625	-0.21883447
40	0x3d7031b7	0.05864116
41	0xbea2d3fe	-0.31802362
42	0x3d30b4e2	0.043141253
43	0xbd49ed5f	-0.04929864
44	0x3a89deea	0.0010518704
45	0xbc722bac	-0.01478092
46	0xbe027aed	-0.12742205
47	0xbea7bfca	-0.3276351
48	0xbe44ce1a	-0.19219247
49	0xbb88460e	-0.004158742
50	0x3d6b7563	0.057484996
51	0x3b2cdfe6	0.002637857
52	0x3da67445	0.081276454
53	0xbe0b3386	-0.13593873
54	0xbda34ee1	-0.07974029
55	0xbe3ec0f4	-0.18628293
56	0xbe576448	-0.21034348
57	0xbe73afd0	-0.23797536
58	0x3de6e88d	0.11274824
59	0x3e1ae1e3	0.15125231
60	0xbd702c1d	-0.05863582
61	0x3e93d102	0.28870398
62	0x3c01b62c	0.007916968
63	0xbe14a88a	-0.14517418
64	0x3e77066d	0.24123545
65	0x3e40b304	0.18818289
66	0x3e0b96af	0.136317
67	0xbd9b5e95	-0.075863995
68	0xbe2f9b40	-0.17149067
69	0xbe9c1748	-0.30486512
70	0xbe199d4e	-0.15001413
71	0xbe79cf30	-0.24395442
72	0x3bd8e03f	0.006618529
73	0x3e95cbc4	0.29257023
74	0xbe095673	-0.13411884
75	0x3d72c571	0.059270326
76	0xbca000a5	-0.019531557
77	0xbcea2eb0	-0.028586715
78	0xbe07bb49	-0.13255037
79	0xbdfd0d1d	-0.12356017
80	0x3dc31fb7	0.095275335
81	0x3de1c743	0.11024334
82	0xbc79cc82	-0.015246512
83	0xbd2a241d	-0.041538347
84	0xbd4ce73b	-0.050025206
85	0x3cadc3a7	0.021211458
86	0xbd969700	-0.0735302
87	0x3d8b4a8c	0.06801328
88	0xbd90113c	-0.07034537
89	0xbe081414	-0.13288909
90	0x3e010951	0.1260121
91	0xbd22a5cc	-0.039708897
92	0x3e3f6c4e	0.18693659
93	0x3e0a6791	0.1351607
94	0xbe667c81	-0.22508432
95	0x3e2d8b60	0.16947699
96	0xbe8f8005	-0.2802736
97	0xbe37cc68	-0.17949069
98	0x3d14e1d9	0.036348198
99	0x3cd2327d	0.02565884
100	0xbd0a64e2	-0.033787616
101	0xbcbf9f99	-0.023391532
102	0x3e38f88b	0.18063562
103	0x3d8860a0	0.06659055
104	0x3d76b28f	0.06022888
105	0x3c384c25	0.011248623
106	0xbe3f963c	-0.18709654
107	0xbd309001	-0.043106083
108	0xbdd7d482	-0.105385795
109	0xbc5e5e17	-0.013572237
110	0x3ee08b24	0.43856156
111	0x3e1f2d2b	0.15544574
112	0xbdd55c5d	-0.104180075
113	0x3ccf4438	0.025301084
114	0xbe38d53d	-0.18050094
115	0xbd2f2a8d	-0.04276519
116	0x3de6a13f	0.11261224
117	0xbda4c360	-0.08045077
118	0x3e25d39f	0.16194008
119	0x3d8c8792	0.068617955
120	0xbe209cbe	-0.15684792
121	0xbe18668b	-0.14882867
122	0xbd5eafc7	-0.054366853
123	0x3ecae488	0.3962748
124	0xbd45634f	-0.04819041
125	0xbdf4315b	-0.11923476
126	0x3ca0fc14	0.01965145
127	0xbdcddee1	-0.100522764
128	0x3df7af4d	0.12093983
129	0x3d6a4d9f	0.05720293
130	0xbdb6518f	-0.08902275
131	0xbdfd8e02	-0.123806015
132	0xbe1a8ba6	-0.15092334
133	0x3e6720c4	0.22571093
134	0x3e0ade58	0.1356138
135	0xbe6bbabd	-0.23020454
136	0xbd0b4c9e	-0.034008615
137	0x3e5b5259	0.21418132
138	0x3dbcacae	0.092126235
139	0xbd3a9c1a	-0.045559026
140	0xbdd1abe2	-0.10237862
141	0x3dd9e0bc	0.10638568
142	0xbdadb615	-0.08481995
143	0xbe19726c	-0.14985055
144	0xbe83bb26	-0.2572872
145	0xbdcb5e87	-0.09930139
146	0xbe005a32	-0.12534407
147	0xbd3e7d36	-0.04650613
148	0xbdf5fec0	-0.1201148
149	0xbd77e52d	-0.060521293
150	0x3e49351f	0.1964917
151	0x3dca5199	0.09878845
152	0x3e01e8e8	0.12686503
153	0x3c01d3e9	0.0079240585
154	0x3e132800	0.14370728
155	0xbe29faad	-0.16599531
156	0x3deddda8	0.11614543
157	0x3da2ae0b	0.07943352
158	0x3ca43307	0.020043863
159	0x3e51e5a6	0.2049776
160	0x3bf1e444	0.0073819477
161	0x3e22fbc7	0.15916358
162	0xbcc5c910	-0.024143726
163	0xbd744184	-0.059632793
164	0xbd6cb73c	-0.057791933
165	0x3c6accb5	0.0143310325
166	0xbdae2d07	-0.08504682
167	0xbc91ab10	-0.017781764
168	0x3de6a4fd	0.11261938
169	0xbc82583d	-0.015911216
170	0xbd67caeb	-0.056590002
171	0x3e493278	0.19648159
172	0xbe5b5f11	-0.21422984
173	0x3e2a6193	0.16638784
174	0x3e487936	0.19577488
175	0x3e3375b3	0.17525367
176	0x3d07e238	0.033174723
177	0xbc70d24b	-0.014698575
178	0x3ed48945	0.41510978
179	0xbbec0bde	-0.007203563
180	0x3db332b8	0.08749908
181	0xbe08e8c7	-0.13370048
182	0xbd38f982	-0.045159824
183	0x3e904ba1	0.281827
184	0xbb8b7df0	-0.0042569563
185	0xbe104d65	-0.14092024
186	0xbd939751	-0.07206596
187	0x3cffb2b2	0.031213138
188	0x3e959e7c	0.29222476
189	0x3d067b9f	0.032832738
190	0x3e3191bb	0.17340748
191	0xbe26e2c7	-0.16297446
192	0xbd3518cc	-0.0442131
193	0xbe403feb	-0.18774383
194	0xbb00fd28	-0.0019682143
195	0x3d9e4f77	0.077300005
196	0xbdf902a8	-0.1215871
197	0x3d8aacd3	0.06771245
198	0x3e6d4f38	0.23174751
199	0xbd2a6bf9	-0.041606877
200	0xbdb28c70	-0.087181926
201	0x3c87c87f	0.016575096
202	0xbe5e12c5	-0.21686848
203	0x3dd02004	0.101623565
204	0xbd2539b9	-0.04033825
205	0xbe8f2426	-0.27957267
206	0xbe47fd37	-0.19530188
207	0xbe9e797c	-0.3095206
208	0x3d8fa7a8	0.070144
209	0xbe0aa321	-0.13538791
210	0xbe4abd29	-0.19798721
211	0xbe68d0bd	-0.22735877
212	0x3e0e05cf	0.13869403
213	0x3d860f69	0.06545908
214	0x3d94b3d6	0.072608635
215	0x3e6a099d	0.2285523
216	0x3e3a5893	0.18197851
217	0x3e07ee8d	0.13274594
218	0xbd1f5647	-0.03890064
219	0x3d81ba57	0.0633437
220	0xbe871f51	-0.2639108
221	0x3e4afa29	0.19821991
222	0xbe6c1f02	-0.23058704
223	0x3e99481d	0.2993783
224	0xbd44ad33	-0.04801674
225	0xbe147eb7	-0.14501463
226	0x3ec6d1f7	0.38832065
227	0x3e2c4469	0.16822971
228	0xbe5b32c4	-0.21406084
229	0x3ecf8d14	0.40537322
230	0xbe81a70b	-0.25322756
231	0x3de10476	0.10987179
232	0xbe07c42f	-0.13258432
233	0xbdabddcf	-0.08391916
234	0xbd99cba9	-0.07509548
235	0x3dba855b	0.09107467
236	0xbae29b1d	-0.0017288659
237	0x3d71fe52	0.05908043
238	0xbca425b8	-0.020037517
239	0xbc215540	-0.009846985
240	0xbdb91e20	-0.09038949
241	0x3e1a3b63	0.15061717
242	0xbe3971fc	-0.18109888
243	0x3dd5b859	0.10435552
244	0x3d811967	0.06303673
245	0xbea6aeb7	-0.32555172
246	0xbeca7388	-0.39541268
247	0xbe9c99d9	-0.30586126
248	0xbdd38fe1	-0.10330177
249	0xbe878423	-0.26468
250	0xbc940636	-0.018069368
251	0x3d9451ac	0.0724214
252	0x3883c1b3	6.282646e-05
253	0xbe9376ec	-0.28801668
254	0x3b5e88eb	0.0033956121
255	0xbbe1e828	-0.0068941303

o2o.bias f4 [44]
0	0x3e8c65e4	0.27421486
1	0xbdcabb82	-0.098990455
2	0x3da5bef6	0.080930635
3	0xbdc685ac	-0.09693465
4	0x3e9ceaa6	0.30647773
5	0x3b275c14	0.002553706
6	0xbe240ced	-0.16020556
7	0xbafd6a94	-0.0019334131
8	0x3e022725	0.12710245
9	0xbe3acce6	-0.18242225
10	0xbe8cb777	-0.27483723
11	0xbd1cf4d0	-0.03831941
12	0x3c59dbcc	0.013297033
13	0x3d9edad7	0.07756584
14	0x3e8b7cce	0.27243656
15	0x3bc98549	0.006149922
16	0xbe161a44	-0.14658457
17	0x3e4e769d	0.20162435
18	0xbd9c4560	-0.0763042
19	0xbceeb87c	-0.029140703
20	0x3e44610f	0.1917765
21	0xbd30302b	-0.043014687
22	0xbe61dfdc	-0.22058052
23	0xbdc9f421	-0.09861017
24	0xbd0102c0	-0.031496763
25	0xbe8b8bfa	-0.2725523
26	0xbe5a2454	-0.2130292
27	0xbe7cbe02	-0.24681857
28	0xbe4b857e	-0.19875142
29	0xbeaca44b	-0.33719096
30	0xbeb899bd	-0.36054793
31	0xbe9f334e	-0.3109383
32	0xbebd31dd	-0.36952105
33	0xbec8918b	-0.3917354
34	0xbea2745e	-0.31729406
35	0xbec6ded2	-0.38841873
36	0xbe8d7559	-0.27628592
37	0xbecaa431	-0.39578393
38	0xbea072d8	-0.3133762
39	0xbebd60bf	-0.36987874
40	0xbe960d38	-0.2930696
41	0xbec54504	-0.38529217
42	0xbeba4774	-0.3638264
43	0xbe834820	-0.25640965
